{
	"nodes":[
		{"op":"null","name":"Input","attrs":{},"inputs":[]},
		{"op":"null","name":"1.State","attrs":{},"inputs":[]},
		{"op":"null","name":"2.State","attrs":{},"inputs":[]},
		{"op":"null","name":"1.InputGateInputWeights","attrs":{},"inputs":[]},
		{"op":"null","name":"1.InputGateStateWeights","attrs":{},"inputs":[]},
		{"op":"null","name":"1.InputGateBiases","attrs":{},"inputs":[]},
		{"op":"null","name":"1.ResetGateInputWeights","attrs":{},"inputs":[]},
		{"op":"null","name":"1.ResetGateStateWeights","attrs":{},"inputs":[]},
		{"op":"null","name":"1.ResetGateBiases","attrs":{},"inputs":[]},
		{"op":"null","name":"1.MemoryGateInputWeights","attrs":{},"inputs":[]},
		{"op":"null","name":"1.MemoryGateStateWeights","attrs":{},"inputs":[]},
		{"op":"null","name":"1.MemoryGateBiases","attrs":{},"inputs":[]},
		{"op":"SliceChannel","name":"1$0","attrs":{"axis":"1","num_outputs":"30","squeeze_axis":"true"},"inputs":[[0,0,0]]},
		{"op":"FullyConnected","name":"1$1","attrs":{"num_hidden":"512"},"inputs":[[12,0,0],[3,0,0],[5,0,0]]},
		{"op":"FullyConnected","name":"1$2","attrs":{"num_hidden":"512"},"inputs":[[12,1,0],[3,0,0],[5,0,0]]},
		{"op":"FullyConnected","name":"1$3","attrs":{"num_hidden":"512"},"inputs":[[12,2,0],[3,0,0],[5,0,0]]},
		{"op":"FullyConnected","name":"1$4","attrs":{"num_hidden":"512"},"inputs":[[12,3,0],[3,0,0],[5,0,0]]},
		{"op":"FullyConnected","name":"1$5","attrs":{"num_hidden":"512"},"inputs":[[12,4,0],[3,0,0],[5,0,0]]},
		{"op":"FullyConnected","name":"1$6","attrs":{"num_hidden":"512"},"inputs":[[12,5,0],[3,0,0],[5,0,0]]},
		{"op":"FullyConnected","name":"1$7","attrs":{"num_hidden":"512"},"inputs":[[12,6,0],[3,0,0],[5,0,0]]},
		{"op":"FullyConnected","name":"1$8","attrs":{"num_hidden":"512"},"inputs":[[12,7,0],[3,0,0],[5,0,0]]},
		{"op":"FullyConnected","name":"1$9","attrs":{"num_hidden":"512"},"inputs":[[12,8,0],[3,0,0],[5,0,0]]},
		{"op":"FullyConnected","name":"1$10","attrs":{"num_hidden":"512"},"inputs":[[12,9,0],[3,0,0],[5,0,0]]},
		{"op":"FullyConnected","name":"1$11","attrs":{"num_hidden":"512"},"inputs":[[12,10,0],[3,0,0],[5,0,0]]},
		{"op":"FullyConnected","name":"1$12","attrs":{"num_hidden":"512"},"inputs":[[12,11,0],[3,0,0],[5,0,0]]},
		{"op":"FullyConnected","name":"1$13","attrs":{"num_hidden":"512"},"inputs":[[12,12,0],[3,0,0],[5,0,0]]},
		{"op":"FullyConnected","name":"1$14","attrs":{"num_hidden":"512"},"inputs":[[12,13,0],[3,0,0],[5,0,0]]},
		{"op":"FullyConnected","name":"1$15","attrs":{"num_hidden":"512"},"inputs":[[12,14,0],[3,0,0],[5,0,0]]},
		{"op":"FullyConnected","name":"1$16","attrs":{"num_hidden":"512"},"inputs":[[12,15,0],[3,0,0],[5,0,0]]},
		{"op":"FullyConnected","name":"1$17","attrs":{"num_hidden":"512"},"inputs":[[12,16,0],[3,0,0],[5,0,0]]},
		{"op":"FullyConnected","name":"1$18","attrs":{"num_hidden":"512"},"inputs":[[12,17,0],[3,0,0],[5,0,0]]},
		{"op":"FullyConnected","name":"1$19","attrs":{"num_hidden":"512"},"inputs":[[12,18,0],[3,0,0],[5,0,0]]},
		{"op":"FullyConnected","name":"1$20","attrs":{"num_hidden":"512"},"inputs":[[12,19,0],[3,0,0],[5,0,0]]},
		{"op":"FullyConnected","name":"1$21","attrs":{"num_hidden":"512"},"inputs":[[12,20,0],[3,0,0],[5,0,0]]},
		{"op":"FullyConnected","name":"1$22","attrs":{"num_hidden":"512"},"inputs":[[12,21,0],[3,0,0],[5,0,0]]},
		{"op":"FullyConnected","name":"1$23","attrs":{"num_hidden":"512"},"inputs":[[12,22,0],[3,0,0],[5,0,0]]},
		{"op":"FullyConnected","name":"1$24","attrs":{"num_hidden":"512"},"inputs":[[12,23,0],[3,0,0],[5,0,0]]},
		{"op":"FullyConnected","name":"1$25","attrs":{"num_hidden":"512"},"inputs":[[12,24,0],[3,0,0],[5,0,0]]},
		{"op":"FullyConnected","name":"1$26","attrs":{"num_hidden":"512"},"inputs":[[12,25,0],[3,0,0],[5,0,0]]},
		{"op":"FullyConnected","name":"1$27","attrs":{"num_hidden":"512"},"inputs":[[12,26,0],[3,0,0],[5,0,0]]},
		{"op":"FullyConnected","name":"1$28","attrs":{"num_hidden":"512"},"inputs":[[12,27,0],[3,0,0],[5,0,0]]},
		{"op":"FullyConnected","name":"1$29","attrs":{"num_hidden":"512"},"inputs":[[12,28,0],[3,0,0],[5,0,0]]},
		{"op":"FullyConnected","name":"1$30","attrs":{"num_hidden":"512"},"inputs":[[12,29,0],[3,0,0],[5,0,0]]},
		{"op":"FullyConnected","name":"1$31","attrs":{"num_hidden":"512"},"inputs":[[12,0,0],[6,0,0],[8,0,0]]},
		{"op":"FullyConnected","name":"1$32","attrs":{"num_hidden":"512"},"inputs":[[12,1,0],[6,0,0],[8,0,0]]},
		{"op":"FullyConnected","name":"1$33","attrs":{"num_hidden":"512"},"inputs":[[12,2,0],[6,0,0],[8,0,0]]},
		{"op":"FullyConnected","name":"1$34","attrs":{"num_hidden":"512"},"inputs":[[12,3,0],[6,0,0],[8,0,0]]},
		{"op":"FullyConnected","name":"1$35","attrs":{"num_hidden":"512"},"inputs":[[12,4,0],[6,0,0],[8,0,0]]},
		{"op":"FullyConnected","name":"1$36","attrs":{"num_hidden":"512"},"inputs":[[12,5,0],[6,0,0],[8,0,0]]},
		{"op":"FullyConnected","name":"1$37","attrs":{"num_hidden":"512"},"inputs":[[12,6,0],[6,0,0],[8,0,0]]},
		{"op":"FullyConnected","name":"1$38","attrs":{"num_hidden":"512"},"inputs":[[12,7,0],[6,0,0],[8,0,0]]},
		{"op":"FullyConnected","name":"1$39","attrs":{"num_hidden":"512"},"inputs":[[12,8,0],[6,0,0],[8,0,0]]},
		{"op":"FullyConnected","name":"1$40","attrs":{"num_hidden":"512"},"inputs":[[12,9,0],[6,0,0],[8,0,0]]},
		{"op":"FullyConnected","name":"1$41","attrs":{"num_hidden":"512"},"inputs":[[12,10,0],[6,0,0],[8,0,0]]},
		{"op":"FullyConnected","name":"1$42","attrs":{"num_hidden":"512"},"inputs":[[12,11,0],[6,0,0],[8,0,0]]},
		{"op":"FullyConnected","name":"1$43","attrs":{"num_hidden":"512"},"inputs":[[12,12,0],[6,0,0],[8,0,0]]},
		{"op":"FullyConnected","name":"1$44","attrs":{"num_hidden":"512"},"inputs":[[12,13,0],[6,0,0],[8,0,0]]},
		{"op":"FullyConnected","name":"1$45","attrs":{"num_hidden":"512"},"inputs":[[12,14,0],[6,0,0],[8,0,0]]},
		{"op":"FullyConnected","name":"1$46","attrs":{"num_hidden":"512"},"inputs":[[12,15,0],[6,0,0],[8,0,0]]},
		{"op":"FullyConnected","name":"1$47","attrs":{"num_hidden":"512"},"inputs":[[12,16,0],[6,0,0],[8,0,0]]},
		{"op":"FullyConnected","name":"1$48","attrs":{"num_hidden":"512"},"inputs":[[12,17,0],[6,0,0],[8,0,0]]},
		{"op":"FullyConnected","name":"1$49","attrs":{"num_hidden":"512"},"inputs":[[12,18,0],[6,0,0],[8,0,0]]},
		{"op":"FullyConnected","name":"1$50","attrs":{"num_hidden":"512"},"inputs":[[12,19,0],[6,0,0],[8,0,0]]},
		{"op":"FullyConnected","name":"1$51","attrs":{"num_hidden":"512"},"inputs":[[12,20,0],[6,0,0],[8,0,0]]},
		{"op":"FullyConnected","name":"1$52","attrs":{"num_hidden":"512"},"inputs":[[12,21,0],[6,0,0],[8,0,0]]},
		{"op":"FullyConnected","name":"1$53","attrs":{"num_hidden":"512"},"inputs":[[12,22,0],[6,0,0],[8,0,0]]},
		{"op":"FullyConnected","name":"1$54","attrs":{"num_hidden":"512"},"inputs":[[12,23,0],[6,0,0],[8,0,0]]},
		{"op":"FullyConnected","name":"1$55","attrs":{"num_hidden":"512"},"inputs":[[12,24,0],[6,0,0],[8,0,0]]},
		{"op":"FullyConnected","name":"1$56","attrs":{"num_hidden":"512"},"inputs":[[12,25,0],[6,0,0],[8,0,0]]},
		{"op":"FullyConnected","name":"1$57","attrs":{"num_hidden":"512"},"inputs":[[12,26,0],[6,0,0],[8,0,0]]},
		{"op":"FullyConnected","name":"1$58","attrs":{"num_hidden":"512"},"inputs":[[12,27,0],[6,0,0],[8,0,0]]},
		{"op":"FullyConnected","name":"1$59","attrs":{"num_hidden":"512"},"inputs":[[12,28,0],[6,0,0],[8,0,0]]},
		{"op":"FullyConnected","name":"1$60","attrs":{"num_hidden":"512"},"inputs":[[12,29,0],[6,0,0],[8,0,0]]},
		{"op":"FullyConnected","name":"1$61","attrs":{"num_hidden":"512"},"inputs":[[12,0,0],[9,0,0],[11,0,0]]},
		{"op":"FullyConnected","name":"1$62","attrs":{"num_hidden":"512"},"inputs":[[12,1,0],[9,0,0],[11,0,0]]},
		{"op":"FullyConnected","name":"1$63","attrs":{"num_hidden":"512"},"inputs":[[12,2,0],[9,0,0],[11,0,0]]},
		{"op":"FullyConnected","name":"1$64","attrs":{"num_hidden":"512"},"inputs":[[12,3,0],[9,0,0],[11,0,0]]},
		{"op":"FullyConnected","name":"1$65","attrs":{"num_hidden":"512"},"inputs":[[12,4,0],[9,0,0],[11,0,0]]},
		{"op":"FullyConnected","name":"1$66","attrs":{"num_hidden":"512"},"inputs":[[12,5,0],[9,0,0],[11,0,0]]},
		{"op":"FullyConnected","name":"1$67","attrs":{"num_hidden":"512"},"inputs":[[12,6,0],[9,0,0],[11,0,0]]},
		{"op":"FullyConnected","name":"1$68","attrs":{"num_hidden":"512"},"inputs":[[12,7,0],[9,0,0],[11,0,0]]},
		{"op":"FullyConnected","name":"1$69","attrs":{"num_hidden":"512"},"inputs":[[12,8,0],[9,0,0],[11,0,0]]},
		{"op":"FullyConnected","name":"1$70","attrs":{"num_hidden":"512"},"inputs":[[12,9,0],[9,0,0],[11,0,0]]},
		{"op":"FullyConnected","name":"1$71","attrs":{"num_hidden":"512"},"inputs":[[12,10,0],[9,0,0],[11,0,0]]},
		{"op":"FullyConnected","name":"1$72","attrs":{"num_hidden":"512"},"inputs":[[12,11,0],[9,0,0],[11,0,0]]},
		{"op":"FullyConnected","name":"1$73","attrs":{"num_hidden":"512"},"inputs":[[12,12,0],[9,0,0],[11,0,0]]},
		{"op":"FullyConnected","name":"1$74","attrs":{"num_hidden":"512"},"inputs":[[12,13,0],[9,0,0],[11,0,0]]},
		{"op":"FullyConnected","name":"1$75","attrs":{"num_hidden":"512"},"inputs":[[12,14,0],[9,0,0],[11,0,0]]},
		{"op":"FullyConnected","name":"1$76","attrs":{"num_hidden":"512"},"inputs":[[12,15,0],[9,0,0],[11,0,0]]},
		{"op":"FullyConnected","name":"1$77","attrs":{"num_hidden":"512"},"inputs":[[12,16,0],[9,0,0],[11,0,0]]},
		{"op":"FullyConnected","name":"1$78","attrs":{"num_hidden":"512"},"inputs":[[12,17,0],[9,0,0],[11,0,0]]},
		{"op":"FullyConnected","name":"1$79","attrs":{"num_hidden":"512"},"inputs":[[12,18,0],[9,0,0],[11,0,0]]},
		{"op":"FullyConnected","name":"1$80","attrs":{"num_hidden":"512"},"inputs":[[12,19,0],[9,0,0],[11,0,0]]},
		{"op":"FullyConnected","name":"1$81","attrs":{"num_hidden":"512"},"inputs":[[12,20,0],[9,0,0],[11,0,0]]},
		{"op":"FullyConnected","name":"1$82","attrs":{"num_hidden":"512"},"inputs":[[12,21,0],[9,0,0],[11,0,0]]},
		{"op":"FullyConnected","name":"1$83","attrs":{"num_hidden":"512"},"inputs":[[12,22,0],[9,0,0],[11,0,0]]},
		{"op":"FullyConnected","name":"1$84","attrs":{"num_hidden":"512"},"inputs":[[12,23,0],[9,0,0],[11,0,0]]},
		{"op":"FullyConnected","name":"1$85","attrs":{"num_hidden":"512"},"inputs":[[12,24,0],[9,0,0],[11,0,0]]},
		{"op":"FullyConnected","name":"1$86","attrs":{"num_hidden":"512"},"inputs":[[12,25,0],[9,0,0],[11,0,0]]},
		{"op":"FullyConnected","name":"1$87","attrs":{"num_hidden":"512"},"inputs":[[12,26,0],[9,0,0],[11,0,0]]},
		{"op":"FullyConnected","name":"1$88","attrs":{"num_hidden":"512"},"inputs":[[12,27,0],[9,0,0],[11,0,0]]},
		{"op":"FullyConnected","name":"1$89","attrs":{"num_hidden":"512"},"inputs":[[12,28,0],[9,0,0],[11,0,0]]},
		{"op":"FullyConnected","name":"1$90","attrs":{"num_hidden":"512"},"inputs":[[12,29,0],[9,0,0],[11,0,0]]},
		{"op":"FullyConnected","name":"1$91","attrs":{"num_hidden":"512","no_bias":"true"},"inputs":[[1,0,0],[4,0,0]]},
		{"op":"_Plus","name":"1$92","attrs":{},"inputs":[[13,0,0],[103,0,0]]},
		{"op":"sigmoid","name":"1$93","attrs":{},"inputs":[[104,0,0]]},
		{"op":"FullyConnected","name":"1$94","attrs":{"num_hidden":"512","no_bias":"true"},"inputs":[[1,0,0],[7,0,0]]},
		{"op":"_Plus","name":"1$95","attrs":{},"inputs":[[43,0,0],[106,0,0]]},
		{"op":"sigmoid","name":"1$96","attrs":{},"inputs":[[107,0,0]]},
		{"op":"FullyConnected","name":"1$97","attrs":{"num_hidden":"512","no_bias":"true"},"inputs":[[1,0,0],[10,0,0]]},
		{"op":"_Mul","name":"1$98","attrs":{},"inputs":[[108,0,0],[109,0,0]]},
		{"op":"_Plus","name":"1$99","attrs":{},"inputs":[[73,0,0],[110,0,0]]},
		{"op":"tanh","name":"1$100","attrs":{},"inputs":[[111,0,0]]},
		{"op":"_RMinusScalar","name":"1$101","attrs":{"scalar":"1.0"},"inputs":[[105,0,0]]},
		{"op":"_Mul","name":"1$102","attrs":{},"inputs":[[112,0,0],[113,0,0]]},
		{"op":"_Mul","name":"1$103","attrs":{},"inputs":[[1,0,0],[105,0,0]]},
		{"op":"_Plus","name":"1$104","attrs":{},"inputs":[[114,0,0],[115,0,0]]},
		{"op":"FullyConnected","name":"1$105","attrs":{"num_hidden":"512","no_bias":"true"},"inputs":[[116,0,0],[4,0,0]]},
		{"op":"_Plus","name":"1$106","attrs":{},"inputs":[[14,0,0],[117,0,0]]},
		{"op":"sigmoid","name":"1$107","attrs":{},"inputs":[[118,0,0]]},
		{"op":"FullyConnected","name":"1$108","attrs":{"num_hidden":"512","no_bias":"true"},"inputs":[[116,0,0],[7,0,0]]},
		{"op":"_Plus","name":"1$109","attrs":{},"inputs":[[44,0,0],[120,0,0]]},
		{"op":"sigmoid","name":"1$110","attrs":{},"inputs":[[121,0,0]]},
		{"op":"FullyConnected","name":"1$111","attrs":{"num_hidden":"512","no_bias":"true"},"inputs":[[116,0,0],[10,0,0]]},
		{"op":"_Mul","name":"1$112","attrs":{},"inputs":[[122,0,0],[123,0,0]]},
		{"op":"_Plus","name":"1$113","attrs":{},"inputs":[[74,0,0],[124,0,0]]},
		{"op":"tanh","name":"1$114","attrs":{},"inputs":[[125,0,0]]},
		{"op":"_RMinusScalar","name":"1$115","attrs":{"scalar":"1.0"},"inputs":[[119,0,0]]},
		{"op":"_Mul","name":"1$116","attrs":{},"inputs":[[126,0,0],[127,0,0]]},
		{"op":"_Mul","name":"1$117","attrs":{},"inputs":[[116,0,0],[119,0,0]]},
		{"op":"_Plus","name":"1$118","attrs":{},"inputs":[[128,0,0],[129,0,0]]},
		{"op":"FullyConnected","name":"1$119","attrs":{"num_hidden":"512","no_bias":"true"},"inputs":[[130,0,0],[4,0,0]]},
		{"op":"_Plus","name":"1$120","attrs":{},"inputs":[[15,0,0],[131,0,0]]},
		{"op":"sigmoid","name":"1$121","attrs":{},"inputs":[[132,0,0]]},
		{"op":"FullyConnected","name":"1$122","attrs":{"num_hidden":"512","no_bias":"true"},"inputs":[[130,0,0],[7,0,0]]},
		{"op":"_Plus","name":"1$123","attrs":{},"inputs":[[45,0,0],[134,0,0]]},
		{"op":"sigmoid","name":"1$124","attrs":{},"inputs":[[135,0,0]]},
		{"op":"FullyConnected","name":"1$125","attrs":{"num_hidden":"512","no_bias":"true"},"inputs":[[130,0,0],[10,0,0]]},
		{"op":"_Mul","name":"1$126","attrs":{},"inputs":[[136,0,0],[137,0,0]]},
		{"op":"_Plus","name":"1$127","attrs":{},"inputs":[[75,0,0],[138,0,0]]},
		{"op":"tanh","name":"1$128","attrs":{},"inputs":[[139,0,0]]},
		{"op":"_RMinusScalar","name":"1$129","attrs":{"scalar":"1.0"},"inputs":[[133,0,0]]},
		{"op":"_Mul","name":"1$130","attrs":{},"inputs":[[140,0,0],[141,0,0]]},
		{"op":"_Mul","name":"1$131","attrs":{},"inputs":[[130,0,0],[133,0,0]]},
		{"op":"_Plus","name":"1$132","attrs":{},"inputs":[[142,0,0],[143,0,0]]},
		{"op":"FullyConnected","name":"1$133","attrs":{"num_hidden":"512","no_bias":"true"},"inputs":[[144,0,0],[4,0,0]]},
		{"op":"_Plus","name":"1$134","attrs":{},"inputs":[[16,0,0],[145,0,0]]},
		{"op":"sigmoid","name":"1$135","attrs":{},"inputs":[[146,0,0]]},
		{"op":"FullyConnected","name":"1$136","attrs":{"num_hidden":"512","no_bias":"true"},"inputs":[[144,0,0],[7,0,0]]},
		{"op":"_Plus","name":"1$137","attrs":{},"inputs":[[46,0,0],[148,0,0]]},
		{"op":"sigmoid","name":"1$138","attrs":{},"inputs":[[149,0,0]]},
		{"op":"FullyConnected","name":"1$139","attrs":{"num_hidden":"512","no_bias":"true"},"inputs":[[144,0,0],[10,0,0]]},
		{"op":"_Mul","name":"1$140","attrs":{},"inputs":[[150,0,0],[151,0,0]]},
		{"op":"_Plus","name":"1$141","attrs":{},"inputs":[[76,0,0],[152,0,0]]},
		{"op":"tanh","name":"1$142","attrs":{},"inputs":[[153,0,0]]},
		{"op":"_RMinusScalar","name":"1$143","attrs":{"scalar":"1.0"},"inputs":[[147,0,0]]},
		{"op":"_Mul","name":"1$144","attrs":{},"inputs":[[154,0,0],[155,0,0]]},
		{"op":"_Mul","name":"1$145","attrs":{},"inputs":[[144,0,0],[147,0,0]]},
		{"op":"_Plus","name":"1$146","attrs":{},"inputs":[[156,0,0],[157,0,0]]},
		{"op":"FullyConnected","name":"1$147","attrs":{"num_hidden":"512","no_bias":"true"},"inputs":[[158,0,0],[4,0,0]]},
		{"op":"_Plus","name":"1$148","attrs":{},"inputs":[[17,0,0],[159,0,0]]},
		{"op":"sigmoid","name":"1$149","attrs":{},"inputs":[[160,0,0]]},
		{"op":"FullyConnected","name":"1$150","attrs":{"num_hidden":"512","no_bias":"true"},"inputs":[[158,0,0],[7,0,0]]},
		{"op":"_Plus","name":"1$151","attrs":{},"inputs":[[47,0,0],[162,0,0]]},
		{"op":"sigmoid","name":"1$152","attrs":{},"inputs":[[163,0,0]]},
		{"op":"FullyConnected","name":"1$153","attrs":{"num_hidden":"512","no_bias":"true"},"inputs":[[158,0,0],[10,0,0]]},
		{"op":"_Mul","name":"1$154","attrs":{},"inputs":[[164,0,0],[165,0,0]]},
		{"op":"_Plus","name":"1$155","attrs":{},"inputs":[[77,0,0],[166,0,0]]},
		{"op":"tanh","name":"1$156","attrs":{},"inputs":[[167,0,0]]},
		{"op":"_RMinusScalar","name":"1$157","attrs":{"scalar":"1.0"},"inputs":[[161,0,0]]},
		{"op":"_Mul","name":"1$158","attrs":{},"inputs":[[168,0,0],[169,0,0]]},
		{"op":"_Mul","name":"1$159","attrs":{},"inputs":[[158,0,0],[161,0,0]]},
		{"op":"_Plus","name":"1$160","attrs":{},"inputs":[[170,0,0],[171,0,0]]},
		{"op":"FullyConnected","name":"1$161","attrs":{"num_hidden":"512","no_bias":"true"},"inputs":[[172,0,0],[4,0,0]]},
		{"op":"_Plus","name":"1$162","attrs":{},"inputs":[[18,0,0],[173,0,0]]},
		{"op":"sigmoid","name":"1$163","attrs":{},"inputs":[[174,0,0]]},
		{"op":"FullyConnected","name":"1$164","attrs":{"num_hidden":"512","no_bias":"true"},"inputs":[[172,0,0],[7,0,0]]},
		{"op":"_Plus","name":"1$165","attrs":{},"inputs":[[48,0,0],[176,0,0]]},
		{"op":"sigmoid","name":"1$166","attrs":{},"inputs":[[177,0,0]]},
		{"op":"FullyConnected","name":"1$167","attrs":{"num_hidden":"512","no_bias":"true"},"inputs":[[172,0,0],[10,0,0]]},
		{"op":"_Mul","name":"1$168","attrs":{},"inputs":[[178,0,0],[179,0,0]]},
		{"op":"_Plus","name":"1$169","attrs":{},"inputs":[[78,0,0],[180,0,0]]},
		{"op":"tanh","name":"1$170","attrs":{},"inputs":[[181,0,0]]},
		{"op":"_RMinusScalar","name":"1$171","attrs":{"scalar":"1.0"},"inputs":[[175,0,0]]},
		{"op":"_Mul","name":"1$172","attrs":{},"inputs":[[182,0,0],[183,0,0]]},
		{"op":"_Mul","name":"1$173","attrs":{},"inputs":[[172,0,0],[175,0,0]]},
		{"op":"_Plus","name":"1$174","attrs":{},"inputs":[[184,0,0],[185,0,0]]},
		{"op":"FullyConnected","name":"1$175","attrs":{"num_hidden":"512","no_bias":"true"},"inputs":[[186,0,0],[4,0,0]]},
		{"op":"_Plus","name":"1$176","attrs":{},"inputs":[[19,0,0],[187,0,0]]},
		{"op":"sigmoid","name":"1$177","attrs":{},"inputs":[[188,0,0]]},
		{"op":"FullyConnected","name":"1$178","attrs":{"num_hidden":"512","no_bias":"true"},"inputs":[[186,0,0],[7,0,0]]},
		{"op":"_Plus","name":"1$179","attrs":{},"inputs":[[49,0,0],[190,0,0]]},
		{"op":"sigmoid","name":"1$180","attrs":{},"inputs":[[191,0,0]]},
		{"op":"FullyConnected","name":"1$181","attrs":{"num_hidden":"512","no_bias":"true"},"inputs":[[186,0,0],[10,0,0]]},
		{"op":"_Mul","name":"1$182","attrs":{},"inputs":[[192,0,0],[193,0,0]]},
		{"op":"_Plus","name":"1$183","attrs":{},"inputs":[[79,0,0],[194,0,0]]},
		{"op":"tanh","name":"1$184","attrs":{},"inputs":[[195,0,0]]},
		{"op":"_RMinusScalar","name":"1$185","attrs":{"scalar":"1.0"},"inputs":[[189,0,0]]},
		{"op":"_Mul","name":"1$186","attrs":{},"inputs":[[196,0,0],[197,0,0]]},
		{"op":"_Mul","name":"1$187","attrs":{},"inputs":[[186,0,0],[189,0,0]]},
		{"op":"_Plus","name":"1$188","attrs":{},"inputs":[[198,0,0],[199,0,0]]},
		{"op":"FullyConnected","name":"1$189","attrs":{"num_hidden":"512","no_bias":"true"},"inputs":[[200,0,0],[4,0,0]]},
		{"op":"_Plus","name":"1$190","attrs":{},"inputs":[[20,0,0],[201,0,0]]},
		{"op":"sigmoid","name":"1$191","attrs":{},"inputs":[[202,0,0]]},
		{"op":"FullyConnected","name":"1$192","attrs":{"num_hidden":"512","no_bias":"true"},"inputs":[[200,0,0],[7,0,0]]},
		{"op":"_Plus","name":"1$193","attrs":{},"inputs":[[50,0,0],[204,0,0]]},
		{"op":"sigmoid","name":"1$194","attrs":{},"inputs":[[205,0,0]]},
		{"op":"FullyConnected","name":"1$195","attrs":{"num_hidden":"512","no_bias":"true"},"inputs":[[200,0,0],[10,0,0]]},
		{"op":"_Mul","name":"1$196","attrs":{},"inputs":[[206,0,0],[207,0,0]]},
		{"op":"_Plus","name":"1$197","attrs":{},"inputs":[[80,0,0],[208,0,0]]},
		{"op":"tanh","name":"1$198","attrs":{},"inputs":[[209,0,0]]},
		{"op":"_RMinusScalar","name":"1$199","attrs":{"scalar":"1.0"},"inputs":[[203,0,0]]},
		{"op":"_Mul","name":"1$200","attrs":{},"inputs":[[210,0,0],[211,0,0]]},
		{"op":"_Mul","name":"1$201","attrs":{},"inputs":[[200,0,0],[203,0,0]]},
		{"op":"_Plus","name":"1$202","attrs":{},"inputs":[[212,0,0],[213,0,0]]},
		{"op":"FullyConnected","name":"1$203","attrs":{"num_hidden":"512","no_bias":"true"},"inputs":[[214,0,0],[4,0,0]]},
		{"op":"_Plus","name":"1$204","attrs":{},"inputs":[[21,0,0],[215,0,0]]},
		{"op":"sigmoid","name":"1$205","attrs":{},"inputs":[[216,0,0]]},
		{"op":"FullyConnected","name":"1$206","attrs":{"num_hidden":"512","no_bias":"true"},"inputs":[[214,0,0],[7,0,0]]},
		{"op":"_Plus","name":"1$207","attrs":{},"inputs":[[51,0,0],[218,0,0]]},
		{"op":"sigmoid","name":"1$208","attrs":{},"inputs":[[219,0,0]]},
		{"op":"FullyConnected","name":"1$209","attrs":{"num_hidden":"512","no_bias":"true"},"inputs":[[214,0,0],[10,0,0]]},
		{"op":"_Mul","name":"1$210","attrs":{},"inputs":[[220,0,0],[221,0,0]]},
		{"op":"_Plus","name":"1$211","attrs":{},"inputs":[[81,0,0],[222,0,0]]},
		{"op":"tanh","name":"1$212","attrs":{},"inputs":[[223,0,0]]},
		{"op":"_RMinusScalar","name":"1$213","attrs":{"scalar":"1.0"},"inputs":[[217,0,0]]},
		{"op":"_Mul","name":"1$214","attrs":{},"inputs":[[224,0,0],[225,0,0]]},
		{"op":"_Mul","name":"1$215","attrs":{},"inputs":[[214,0,0],[217,0,0]]},
		{"op":"_Plus","name":"1$216","attrs":{},"inputs":[[226,0,0],[227,0,0]]},
		{"op":"FullyConnected","name":"1$217","attrs":{"num_hidden":"512","no_bias":"true"},"inputs":[[228,0,0],[4,0,0]]},
		{"op":"_Plus","name":"1$218","attrs":{},"inputs":[[22,0,0],[229,0,0]]},
		{"op":"sigmoid","name":"1$219","attrs":{},"inputs":[[230,0,0]]},
		{"op":"FullyConnected","name":"1$220","attrs":{"num_hidden":"512","no_bias":"true"},"inputs":[[228,0,0],[7,0,0]]},
		{"op":"_Plus","name":"1$221","attrs":{},"inputs":[[52,0,0],[232,0,0]]},
		{"op":"sigmoid","name":"1$222","attrs":{},"inputs":[[233,0,0]]},
		{"op":"FullyConnected","name":"1$223","attrs":{"num_hidden":"512","no_bias":"true"},"inputs":[[228,0,0],[10,0,0]]},
		{"op":"_Mul","name":"1$224","attrs":{},"inputs":[[234,0,0],[235,0,0]]},
		{"op":"_Plus","name":"1$225","attrs":{},"inputs":[[82,0,0],[236,0,0]]},
		{"op":"tanh","name":"1$226","attrs":{},"inputs":[[237,0,0]]},
		{"op":"_RMinusScalar","name":"1$227","attrs":{"scalar":"1.0"},"inputs":[[231,0,0]]},
		{"op":"_Mul","name":"1$228","attrs":{},"inputs":[[238,0,0],[239,0,0]]},
		{"op":"_Mul","name":"1$229","attrs":{},"inputs":[[228,0,0],[231,0,0]]},
		{"op":"_Plus","name":"1$230","attrs":{},"inputs":[[240,0,0],[241,0,0]]},
		{"op":"FullyConnected","name":"1$231","attrs":{"num_hidden":"512","no_bias":"true"},"inputs":[[242,0,0],[4,0,0]]},
		{"op":"_Plus","name":"1$232","attrs":{},"inputs":[[23,0,0],[243,0,0]]},
		{"op":"sigmoid","name":"1$233","attrs":{},"inputs":[[244,0,0]]},
		{"op":"FullyConnected","name":"1$234","attrs":{"num_hidden":"512","no_bias":"true"},"inputs":[[242,0,0],[7,0,0]]},
		{"op":"_Plus","name":"1$235","attrs":{},"inputs":[[53,0,0],[246,0,0]]},
		{"op":"sigmoid","name":"1$236","attrs":{},"inputs":[[247,0,0]]},
		{"op":"FullyConnected","name":"1$237","attrs":{"num_hidden":"512","no_bias":"true"},"inputs":[[242,0,0],[10,0,0]]},
		{"op":"_Mul","name":"1$238","attrs":{},"inputs":[[248,0,0],[249,0,0]]},
		{"op":"_Plus","name":"1$239","attrs":{},"inputs":[[83,0,0],[250,0,0]]},
		{"op":"tanh","name":"1$240","attrs":{},"inputs":[[251,0,0]]},
		{"op":"_RMinusScalar","name":"1$241","attrs":{"scalar":"1.0"},"inputs":[[245,0,0]]},
		{"op":"_Mul","name":"1$242","attrs":{},"inputs":[[252,0,0],[253,0,0]]},
		{"op":"_Mul","name":"1$243","attrs":{},"inputs":[[242,0,0],[245,0,0]]},
		{"op":"_Plus","name":"1$244","attrs":{},"inputs":[[254,0,0],[255,0,0]]},
		{"op":"FullyConnected","name":"1$245","attrs":{"num_hidden":"512","no_bias":"true"},"inputs":[[256,0,0],[4,0,0]]},
		{"op":"_Plus","name":"1$246","attrs":{},"inputs":[[24,0,0],[257,0,0]]},
		{"op":"sigmoid","name":"1$247","attrs":{},"inputs":[[258,0,0]]},
		{"op":"FullyConnected","name":"1$248","attrs":{"num_hidden":"512","no_bias":"true"},"inputs":[[256,0,0],[7,0,0]]},
		{"op":"_Plus","name":"1$249","attrs":{},"inputs":[[54,0,0],[260,0,0]]},
		{"op":"sigmoid","name":"1$250","attrs":{},"inputs":[[261,0,0]]},
		{"op":"FullyConnected","name":"1$251","attrs":{"num_hidden":"512","no_bias":"true"},"inputs":[[256,0,0],[10,0,0]]},
		{"op":"_Mul","name":"1$252","attrs":{},"inputs":[[262,0,0],[263,0,0]]},
		{"op":"_Plus","name":"1$253","attrs":{},"inputs":[[84,0,0],[264,0,0]]},
		{"op":"tanh","name":"1$254","attrs":{},"inputs":[[265,0,0]]},
		{"op":"_RMinusScalar","name":"1$255","attrs":{"scalar":"1.0"},"inputs":[[259,0,0]]},
		{"op":"_Mul","name":"1$256","attrs":{},"inputs":[[266,0,0],[267,0,0]]},
		{"op":"_Mul","name":"1$257","attrs":{},"inputs":[[256,0,0],[259,0,0]]},
		{"op":"_Plus","name":"1$258","attrs":{},"inputs":[[268,0,0],[269,0,0]]},
		{"op":"FullyConnected","name":"1$259","attrs":{"num_hidden":"512","no_bias":"true"},"inputs":[[270,0,0],[4,0,0]]},
		{"op":"_Plus","name":"1$260","attrs":{},"inputs":[[25,0,0],[271,0,0]]},
		{"op":"sigmoid","name":"1$261","attrs":{},"inputs":[[272,0,0]]},
		{"op":"FullyConnected","name":"1$262","attrs":{"num_hidden":"512","no_bias":"true"},"inputs":[[270,0,0],[7,0,0]]},
		{"op":"_Plus","name":"1$263","attrs":{},"inputs":[[55,0,0],[274,0,0]]},
		{"op":"sigmoid","name":"1$264","attrs":{},"inputs":[[275,0,0]]},
		{"op":"FullyConnected","name":"1$265","attrs":{"num_hidden":"512","no_bias":"true"},"inputs":[[270,0,0],[10,0,0]]},
		{"op":"_Mul","name":"1$266","attrs":{},"inputs":[[276,0,0],[277,0,0]]},
		{"op":"_Plus","name":"1$267","attrs":{},"inputs":[[85,0,0],[278,0,0]]},
		{"op":"tanh","name":"1$268","attrs":{},"inputs":[[279,0,0]]},
		{"op":"_RMinusScalar","name":"1$269","attrs":{"scalar":"1.0"},"inputs":[[273,0,0]]},
		{"op":"_Mul","name":"1$270","attrs":{},"inputs":[[280,0,0],[281,0,0]]},
		{"op":"_Mul","name":"1$271","attrs":{},"inputs":[[270,0,0],[273,0,0]]},
		{"op":"_Plus","name":"1$272","attrs":{},"inputs":[[282,0,0],[283,0,0]]},
		{"op":"FullyConnected","name":"1$273","attrs":{"num_hidden":"512","no_bias":"true"},"inputs":[[284,0,0],[4,0,0]]},
		{"op":"_Plus","name":"1$274","attrs":{},"inputs":[[26,0,0],[285,0,0]]},
		{"op":"sigmoid","name":"1$275","attrs":{},"inputs":[[286,0,0]]},
		{"op":"FullyConnected","name":"1$276","attrs":{"num_hidden":"512","no_bias":"true"},"inputs":[[284,0,0],[7,0,0]]},
		{"op":"_Plus","name":"1$277","attrs":{},"inputs":[[56,0,0],[288,0,0]]},
		{"op":"sigmoid","name":"1$278","attrs":{},"inputs":[[289,0,0]]},
		{"op":"FullyConnected","name":"1$279","attrs":{"num_hidden":"512","no_bias":"true"},"inputs":[[284,0,0],[10,0,0]]},
		{"op":"_Mul","name":"1$280","attrs":{},"inputs":[[290,0,0],[291,0,0]]},
		{"op":"_Plus","name":"1$281","attrs":{},"inputs":[[86,0,0],[292,0,0]]},
		{"op":"tanh","name":"1$282","attrs":{},"inputs":[[293,0,0]]},
		{"op":"_RMinusScalar","name":"1$283","attrs":{"scalar":"1.0"},"inputs":[[287,0,0]]},
		{"op":"_Mul","name":"1$284","attrs":{},"inputs":[[294,0,0],[295,0,0]]},
		{"op":"_Mul","name":"1$285","attrs":{},"inputs":[[284,0,0],[287,0,0]]},
		{"op":"_Plus","name":"1$286","attrs":{},"inputs":[[296,0,0],[297,0,0]]},
		{"op":"FullyConnected","name":"1$287","attrs":{"num_hidden":"512","no_bias":"true"},"inputs":[[298,0,0],[4,0,0]]},
		{"op":"_Plus","name":"1$288","attrs":{},"inputs":[[27,0,0],[299,0,0]]},
		{"op":"sigmoid","name":"1$289","attrs":{},"inputs":[[300,0,0]]},
		{"op":"FullyConnected","name":"1$290","attrs":{"num_hidden":"512","no_bias":"true"},"inputs":[[298,0,0],[7,0,0]]},
		{"op":"_Plus","name":"1$291","attrs":{},"inputs":[[57,0,0],[302,0,0]]},
		{"op":"sigmoid","name":"1$292","attrs":{},"inputs":[[303,0,0]]},
		{"op":"FullyConnected","name":"1$293","attrs":{"num_hidden":"512","no_bias":"true"},"inputs":[[298,0,0],[10,0,0]]},
		{"op":"_Mul","name":"1$294","attrs":{},"inputs":[[304,0,0],[305,0,0]]},
		{"op":"_Plus","name":"1$295","attrs":{},"inputs":[[87,0,0],[306,0,0]]},
		{"op":"tanh","name":"1$296","attrs":{},"inputs":[[307,0,0]]},
		{"op":"_RMinusScalar","name":"1$297","attrs":{"scalar":"1.0"},"inputs":[[301,0,0]]},
		{"op":"_Mul","name":"1$298","attrs":{},"inputs":[[308,0,0],[309,0,0]]},
		{"op":"_Mul","name":"1$299","attrs":{},"inputs":[[298,0,0],[301,0,0]]},
		{"op":"_Plus","name":"1$300","attrs":{},"inputs":[[310,0,0],[311,0,0]]},
		{"op":"FullyConnected","name":"1$301","attrs":{"num_hidden":"512","no_bias":"true"},"inputs":[[312,0,0],[4,0,0]]},
		{"op":"_Plus","name":"1$302","attrs":{},"inputs":[[28,0,0],[313,0,0]]},
		{"op":"sigmoid","name":"1$303","attrs":{},"inputs":[[314,0,0]]},
		{"op":"FullyConnected","name":"1$304","attrs":{"num_hidden":"512","no_bias":"true"},"inputs":[[312,0,0],[7,0,0]]},
		{"op":"_Plus","name":"1$305","attrs":{},"inputs":[[58,0,0],[316,0,0]]},
		{"op":"sigmoid","name":"1$306","attrs":{},"inputs":[[317,0,0]]},
		{"op":"FullyConnected","name":"1$307","attrs":{"num_hidden":"512","no_bias":"true"},"inputs":[[312,0,0],[10,0,0]]},
		{"op":"_Mul","name":"1$308","attrs":{},"inputs":[[318,0,0],[319,0,0]]},
		{"op":"_Plus","name":"1$309","attrs":{},"inputs":[[88,0,0],[320,0,0]]},
		{"op":"tanh","name":"1$310","attrs":{},"inputs":[[321,0,0]]},
		{"op":"_RMinusScalar","name":"1$311","attrs":{"scalar":"1.0"},"inputs":[[315,0,0]]},
		{"op":"_Mul","name":"1$312","attrs":{},"inputs":[[322,0,0],[323,0,0]]},
		{"op":"_Mul","name":"1$313","attrs":{},"inputs":[[312,0,0],[315,0,0]]},
		{"op":"_Plus","name":"1$314","attrs":{},"inputs":[[324,0,0],[325,0,0]]},
		{"op":"FullyConnected","name":"1$315","attrs":{"num_hidden":"512","no_bias":"true"},"inputs":[[326,0,0],[4,0,0]]},
		{"op":"_Plus","name":"1$316","attrs":{},"inputs":[[29,0,0],[327,0,0]]},
		{"op":"sigmoid","name":"1$317","attrs":{},"inputs":[[328,0,0]]},
		{"op":"FullyConnected","name":"1$318","attrs":{"num_hidden":"512","no_bias":"true"},"inputs":[[326,0,0],[7,0,0]]},
		{"op":"_Plus","name":"1$319","attrs":{},"inputs":[[59,0,0],[330,0,0]]},
		{"op":"sigmoid","name":"1$320","attrs":{},"inputs":[[331,0,0]]},
		{"op":"FullyConnected","name":"1$321","attrs":{"num_hidden":"512","no_bias":"true"},"inputs":[[326,0,0],[10,0,0]]},
		{"op":"_Mul","name":"1$322","attrs":{},"inputs":[[332,0,0],[333,0,0]]},
		{"op":"_Plus","name":"1$323","attrs":{},"inputs":[[89,0,0],[334,0,0]]},
		{"op":"tanh","name":"1$324","attrs":{},"inputs":[[335,0,0]]},
		{"op":"_RMinusScalar","name":"1$325","attrs":{"scalar":"1.0"},"inputs":[[329,0,0]]},
		{"op":"_Mul","name":"1$326","attrs":{},"inputs":[[336,0,0],[337,0,0]]},
		{"op":"_Mul","name":"1$327","attrs":{},"inputs":[[326,0,0],[329,0,0]]},
		{"op":"_Plus","name":"1$328","attrs":{},"inputs":[[338,0,0],[339,0,0]]},
		{"op":"FullyConnected","name":"1$329","attrs":{"num_hidden":"512","no_bias":"true"},"inputs":[[340,0,0],[4,0,0]]},
		{"op":"_Plus","name":"1$330","attrs":{},"inputs":[[30,0,0],[341,0,0]]},
		{"op":"sigmoid","name":"1$331","attrs":{},"inputs":[[342,0,0]]},
		{"op":"FullyConnected","name":"1$332","attrs":{"num_hidden":"512","no_bias":"true"},"inputs":[[340,0,0],[7,0,0]]},
		{"op":"_Plus","name":"1$333","attrs":{},"inputs":[[60,0,0],[344,0,0]]},
		{"op":"sigmoid","name":"1$334","attrs":{},"inputs":[[345,0,0]]},
		{"op":"FullyConnected","name":"1$335","attrs":{"num_hidden":"512","no_bias":"true"},"inputs":[[340,0,0],[10,0,0]]},
		{"op":"_Mul","name":"1$336","attrs":{},"inputs":[[346,0,0],[347,0,0]]},
		{"op":"_Plus","name":"1$337","attrs":{},"inputs":[[90,0,0],[348,0,0]]},
		{"op":"tanh","name":"1$338","attrs":{},"inputs":[[349,0,0]]},
		{"op":"_RMinusScalar","name":"1$339","attrs":{"scalar":"1.0"},"inputs":[[343,0,0]]},
		{"op":"_Mul","name":"1$340","attrs":{},"inputs":[[350,0,0],[351,0,0]]},
		{"op":"_Mul","name":"1$341","attrs":{},"inputs":[[340,0,0],[343,0,0]]},
		{"op":"_Plus","name":"1$342","attrs":{},"inputs":[[352,0,0],[353,0,0]]},
		{"op":"FullyConnected","name":"1$343","attrs":{"num_hidden":"512","no_bias":"true"},"inputs":[[354,0,0],[4,0,0]]},
		{"op":"_Plus","name":"1$344","attrs":{},"inputs":[[31,0,0],[355,0,0]]},
		{"op":"sigmoid","name":"1$345","attrs":{},"inputs":[[356,0,0]]},
		{"op":"FullyConnected","name":"1$346","attrs":{"num_hidden":"512","no_bias":"true"},"inputs":[[354,0,0],[7,0,0]]},
		{"op":"_Plus","name":"1$347","attrs":{},"inputs":[[61,0,0],[358,0,0]]},
		{"op":"sigmoid","name":"1$348","attrs":{},"inputs":[[359,0,0]]},
		{"op":"FullyConnected","name":"1$349","attrs":{"num_hidden":"512","no_bias":"true"},"inputs":[[354,0,0],[10,0,0]]},
		{"op":"_Mul","name":"1$350","attrs":{},"inputs":[[360,0,0],[361,0,0]]},
		{"op":"_Plus","name":"1$351","attrs":{},"inputs":[[91,0,0],[362,0,0]]},
		{"op":"tanh","name":"1$352","attrs":{},"inputs":[[363,0,0]]},
		{"op":"_RMinusScalar","name":"1$353","attrs":{"scalar":"1.0"},"inputs":[[357,0,0]]},
		{"op":"_Mul","name":"1$354","attrs":{},"inputs":[[364,0,0],[365,0,0]]},
		{"op":"_Mul","name":"1$355","attrs":{},"inputs":[[354,0,0],[357,0,0]]},
		{"op":"_Plus","name":"1$356","attrs":{},"inputs":[[366,0,0],[367,0,0]]},
		{"op":"FullyConnected","name":"1$357","attrs":{"num_hidden":"512","no_bias":"true"},"inputs":[[368,0,0],[4,0,0]]},
		{"op":"_Plus","name":"1$358","attrs":{},"inputs":[[32,0,0],[369,0,0]]},
		{"op":"sigmoid","name":"1$359","attrs":{},"inputs":[[370,0,0]]},
		{"op":"FullyConnected","name":"1$360","attrs":{"num_hidden":"512","no_bias":"true"},"inputs":[[368,0,0],[7,0,0]]},
		{"op":"_Plus","name":"1$361","attrs":{},"inputs":[[62,0,0],[372,0,0]]},
		{"op":"sigmoid","name":"1$362","attrs":{},"inputs":[[373,0,0]]},
		{"op":"FullyConnected","name":"1$363","attrs":{"num_hidden":"512","no_bias":"true"},"inputs":[[368,0,0],[10,0,0]]},
		{"op":"_Mul","name":"1$364","attrs":{},"inputs":[[374,0,0],[375,0,0]]},
		{"op":"_Plus","name":"1$365","attrs":{},"inputs":[[92,0,0],[376,0,0]]},
		{"op":"tanh","name":"1$366","attrs":{},"inputs":[[377,0,0]]},
		{"op":"_RMinusScalar","name":"1$367","attrs":{"scalar":"1.0"},"inputs":[[371,0,0]]},
		{"op":"_Mul","name":"1$368","attrs":{},"inputs":[[378,0,0],[379,0,0]]},
		{"op":"_Mul","name":"1$369","attrs":{},"inputs":[[368,0,0],[371,0,0]]},
		{"op":"_Plus","name":"1$370","attrs":{},"inputs":[[380,0,0],[381,0,0]]},
		{"op":"FullyConnected","name":"1$371","attrs":{"num_hidden":"512","no_bias":"true"},"inputs":[[382,0,0],[4,0,0]]},
		{"op":"_Plus","name":"1$372","attrs":{},"inputs":[[33,0,0],[383,0,0]]},
		{"op":"sigmoid","name":"1$373","attrs":{},"inputs":[[384,0,0]]},
		{"op":"FullyConnected","name":"1$374","attrs":{"num_hidden":"512","no_bias":"true"},"inputs":[[382,0,0],[7,0,0]]},
		{"op":"_Plus","name":"1$375","attrs":{},"inputs":[[63,0,0],[386,0,0]]},
		{"op":"sigmoid","name":"1$376","attrs":{},"inputs":[[387,0,0]]},
		{"op":"FullyConnected","name":"1$377","attrs":{"num_hidden":"512","no_bias":"true"},"inputs":[[382,0,0],[10,0,0]]},
		{"op":"_Mul","name":"1$378","attrs":{},"inputs":[[388,0,0],[389,0,0]]},
		{"op":"_Plus","name":"1$379","attrs":{},"inputs":[[93,0,0],[390,0,0]]},
		{"op":"tanh","name":"1$380","attrs":{},"inputs":[[391,0,0]]},
		{"op":"_RMinusScalar","name":"1$381","attrs":{"scalar":"1.0"},"inputs":[[385,0,0]]},
		{"op":"_Mul","name":"1$382","attrs":{},"inputs":[[392,0,0],[393,0,0]]},
		{"op":"_Mul","name":"1$383","attrs":{},"inputs":[[382,0,0],[385,0,0]]},
		{"op":"_Plus","name":"1$384","attrs":{},"inputs":[[394,0,0],[395,0,0]]},
		{"op":"FullyConnected","name":"1$385","attrs":{"num_hidden":"512","no_bias":"true"},"inputs":[[396,0,0],[4,0,0]]},
		{"op":"_Plus","name":"1$386","attrs":{},"inputs":[[34,0,0],[397,0,0]]},
		{"op":"sigmoid","name":"1$387","attrs":{},"inputs":[[398,0,0]]},
		{"op":"FullyConnected","name":"1$388","attrs":{"num_hidden":"512","no_bias":"true"},"inputs":[[396,0,0],[7,0,0]]},
		{"op":"_Plus","name":"1$389","attrs":{},"inputs":[[64,0,0],[400,0,0]]},
		{"op":"sigmoid","name":"1$390","attrs":{},"inputs":[[401,0,0]]},
		{"op":"FullyConnected","name":"1$391","attrs":{"num_hidden":"512","no_bias":"true"},"inputs":[[396,0,0],[10,0,0]]},
		{"op":"_Mul","name":"1$392","attrs":{},"inputs":[[402,0,0],[403,0,0]]},
		{"op":"_Plus","name":"1$393","attrs":{},"inputs":[[94,0,0],[404,0,0]]},
		{"op":"tanh","name":"1$394","attrs":{},"inputs":[[405,0,0]]},
		{"op":"_RMinusScalar","name":"1$395","attrs":{"scalar":"1.0"},"inputs":[[399,0,0]]},
		{"op":"_Mul","name":"1$396","attrs":{},"inputs":[[406,0,0],[407,0,0]]},
		{"op":"_Mul","name":"1$397","attrs":{},"inputs":[[396,0,0],[399,0,0]]},
		{"op":"_Plus","name":"1$398","attrs":{},"inputs":[[408,0,0],[409,0,0]]},
		{"op":"FullyConnected","name":"1$399","attrs":{"num_hidden":"512","no_bias":"true"},"inputs":[[410,0,0],[4,0,0]]},
		{"op":"_Plus","name":"1$400","attrs":{},"inputs":[[35,0,0],[411,0,0]]},
		{"op":"sigmoid","name":"1$401","attrs":{},"inputs":[[412,0,0]]},
		{"op":"FullyConnected","name":"1$402","attrs":{"num_hidden":"512","no_bias":"true"},"inputs":[[410,0,0],[7,0,0]]},
		{"op":"_Plus","name":"1$403","attrs":{},"inputs":[[65,0,0],[414,0,0]]},
		{"op":"sigmoid","name":"1$404","attrs":{},"inputs":[[415,0,0]]},
		{"op":"FullyConnected","name":"1$405","attrs":{"num_hidden":"512","no_bias":"true"},"inputs":[[410,0,0],[10,0,0]]},
		{"op":"_Mul","name":"1$406","attrs":{},"inputs":[[416,0,0],[417,0,0]]},
		{"op":"_Plus","name":"1$407","attrs":{},"inputs":[[95,0,0],[418,0,0]]},
		{"op":"tanh","name":"1$408","attrs":{},"inputs":[[419,0,0]]},
		{"op":"_RMinusScalar","name":"1$409","attrs":{"scalar":"1.0"},"inputs":[[413,0,0]]},
		{"op":"_Mul","name":"1$410","attrs":{},"inputs":[[420,0,0],[421,0,0]]},
		{"op":"_Mul","name":"1$411","attrs":{},"inputs":[[410,0,0],[413,0,0]]},
		{"op":"_Plus","name":"1$412","attrs":{},"inputs":[[422,0,0],[423,0,0]]},
		{"op":"FullyConnected","name":"1$413","attrs":{"num_hidden":"512","no_bias":"true"},"inputs":[[424,0,0],[4,0,0]]},
		{"op":"_Plus","name":"1$414","attrs":{},"inputs":[[36,0,0],[425,0,0]]},
		{"op":"sigmoid","name":"1$415","attrs":{},"inputs":[[426,0,0]]},
		{"op":"FullyConnected","name":"1$416","attrs":{"num_hidden":"512","no_bias":"true"},"inputs":[[424,0,0],[7,0,0]]},
		{"op":"_Plus","name":"1$417","attrs":{},"inputs":[[66,0,0],[428,0,0]]},
		{"op":"sigmoid","name":"1$418","attrs":{},"inputs":[[429,0,0]]},
		{"op":"FullyConnected","name":"1$419","attrs":{"num_hidden":"512","no_bias":"true"},"inputs":[[424,0,0],[10,0,0]]},
		{"op":"_Mul","name":"1$420","attrs":{},"inputs":[[430,0,0],[431,0,0]]},
		{"op":"_Plus","name":"1$421","attrs":{},"inputs":[[96,0,0],[432,0,0]]},
		{"op":"tanh","name":"1$422","attrs":{},"inputs":[[433,0,0]]},
		{"op":"_RMinusScalar","name":"1$423","attrs":{"scalar":"1.0"},"inputs":[[427,0,0]]},
		{"op":"_Mul","name":"1$424","attrs":{},"inputs":[[434,0,0],[435,0,0]]},
		{"op":"_Mul","name":"1$425","attrs":{},"inputs":[[424,0,0],[427,0,0]]},
		{"op":"_Plus","name":"1$426","attrs":{},"inputs":[[436,0,0],[437,0,0]]},
		{"op":"FullyConnected","name":"1$427","attrs":{"num_hidden":"512","no_bias":"true"},"inputs":[[438,0,0],[4,0,0]]},
		{"op":"_Plus","name":"1$428","attrs":{},"inputs":[[37,0,0],[439,0,0]]},
		{"op":"sigmoid","name":"1$429","attrs":{},"inputs":[[440,0,0]]},
		{"op":"FullyConnected","name":"1$430","attrs":{"num_hidden":"512","no_bias":"true"},"inputs":[[438,0,0],[7,0,0]]},
		{"op":"_Plus","name":"1$431","attrs":{},"inputs":[[67,0,0],[442,0,0]]},
		{"op":"sigmoid","name":"1$432","attrs":{},"inputs":[[443,0,0]]},
		{"op":"FullyConnected","name":"1$433","attrs":{"num_hidden":"512","no_bias":"true"},"inputs":[[438,0,0],[10,0,0]]},
		{"op":"_Mul","name":"1$434","attrs":{},"inputs":[[444,0,0],[445,0,0]]},
		{"op":"_Plus","name":"1$435","attrs":{},"inputs":[[97,0,0],[446,0,0]]},
		{"op":"tanh","name":"1$436","attrs":{},"inputs":[[447,0,0]]},
		{"op":"_RMinusScalar","name":"1$437","attrs":{"scalar":"1.0"},"inputs":[[441,0,0]]},
		{"op":"_Mul","name":"1$438","attrs":{},"inputs":[[448,0,0],[449,0,0]]},
		{"op":"_Mul","name":"1$439","attrs":{},"inputs":[[438,0,0],[441,0,0]]},
		{"op":"_Plus","name":"1$440","attrs":{},"inputs":[[450,0,0],[451,0,0]]},
		{"op":"FullyConnected","name":"1$441","attrs":{"num_hidden":"512","no_bias":"true"},"inputs":[[452,0,0],[4,0,0]]},
		{"op":"_Plus","name":"1$442","attrs":{},"inputs":[[38,0,0],[453,0,0]]},
		{"op":"sigmoid","name":"1$443","attrs":{},"inputs":[[454,0,0]]},
		{"op":"FullyConnected","name":"1$444","attrs":{"num_hidden":"512","no_bias":"true"},"inputs":[[452,0,0],[7,0,0]]},
		{"op":"_Plus","name":"1$445","attrs":{},"inputs":[[68,0,0],[456,0,0]]},
		{"op":"sigmoid","name":"1$446","attrs":{},"inputs":[[457,0,0]]},
		{"op":"FullyConnected","name":"1$447","attrs":{"num_hidden":"512","no_bias":"true"},"inputs":[[452,0,0],[10,0,0]]},
		{"op":"_Mul","name":"1$448","attrs":{},"inputs":[[458,0,0],[459,0,0]]},
		{"op":"_Plus","name":"1$449","attrs":{},"inputs":[[98,0,0],[460,0,0]]},
		{"op":"tanh","name":"1$450","attrs":{},"inputs":[[461,0,0]]},
		{"op":"_RMinusScalar","name":"1$451","attrs":{"scalar":"1.0"},"inputs":[[455,0,0]]},
		{"op":"_Mul","name":"1$452","attrs":{},"inputs":[[462,0,0],[463,0,0]]},
		{"op":"_Mul","name":"1$453","attrs":{},"inputs":[[452,0,0],[455,0,0]]},
		{"op":"_Plus","name":"1$454","attrs":{},"inputs":[[464,0,0],[465,0,0]]},
		{"op":"FullyConnected","name":"1$455","attrs":{"num_hidden":"512","no_bias":"true"},"inputs":[[466,0,0],[4,0,0]]},
		{"op":"_Plus","name":"1$456","attrs":{},"inputs":[[39,0,0],[467,0,0]]},
		{"op":"sigmoid","name":"1$457","attrs":{},"inputs":[[468,0,0]]},
		{"op":"FullyConnected","name":"1$458","attrs":{"num_hidden":"512","no_bias":"true"},"inputs":[[466,0,0],[7,0,0]]},
		{"op":"_Plus","name":"1$459","attrs":{},"inputs":[[69,0,0],[470,0,0]]},
		{"op":"sigmoid","name":"1$460","attrs":{},"inputs":[[471,0,0]]},
		{"op":"FullyConnected","name":"1$461","attrs":{"num_hidden":"512","no_bias":"true"},"inputs":[[466,0,0],[10,0,0]]},
		{"op":"_Mul","name":"1$462","attrs":{},"inputs":[[472,0,0],[473,0,0]]},
		{"op":"_Plus","name":"1$463","attrs":{},"inputs":[[99,0,0],[474,0,0]]},
		{"op":"tanh","name":"1$464","attrs":{},"inputs":[[475,0,0]]},
		{"op":"_RMinusScalar","name":"1$465","attrs":{"scalar":"1.0"},"inputs":[[469,0,0]]},
		{"op":"_Mul","name":"1$466","attrs":{},"inputs":[[476,0,0],[477,0,0]]},
		{"op":"_Mul","name":"1$467","attrs":{},"inputs":[[466,0,0],[469,0,0]]},
		{"op":"_Plus","name":"1$468","attrs":{},"inputs":[[478,0,0],[479,0,0]]},
		{"op":"FullyConnected","name":"1$469","attrs":{"num_hidden":"512","no_bias":"true"},"inputs":[[480,0,0],[4,0,0]]},
		{"op":"_Plus","name":"1$470","attrs":{},"inputs":[[40,0,0],[481,0,0]]},
		{"op":"sigmoid","name":"1$471","attrs":{},"inputs":[[482,0,0]]},
		{"op":"FullyConnected","name":"1$472","attrs":{"num_hidden":"512","no_bias":"true"},"inputs":[[480,0,0],[7,0,0]]},
		{"op":"_Plus","name":"1$473","attrs":{},"inputs":[[70,0,0],[484,0,0]]},
		{"op":"sigmoid","name":"1$474","attrs":{},"inputs":[[485,0,0]]},
		{"op":"FullyConnected","name":"1$475","attrs":{"num_hidden":"512","no_bias":"true"},"inputs":[[480,0,0],[10,0,0]]},
		{"op":"_Mul","name":"1$476","attrs":{},"inputs":[[486,0,0],[487,0,0]]},
		{"op":"_Plus","name":"1$477","attrs":{},"inputs":[[100,0,0],[488,0,0]]},
		{"op":"tanh","name":"1$478","attrs":{},"inputs":[[489,0,0]]},
		{"op":"_RMinusScalar","name":"1$479","attrs":{"scalar":"1.0"},"inputs":[[483,0,0]]},
		{"op":"_Mul","name":"1$480","attrs":{},"inputs":[[490,0,0],[491,0,0]]},
		{"op":"_Mul","name":"1$481","attrs":{},"inputs":[[480,0,0],[483,0,0]]},
		{"op":"_Plus","name":"1$482","attrs":{},"inputs":[[492,0,0],[493,0,0]]},
		{"op":"FullyConnected","name":"1$483","attrs":{"num_hidden":"512","no_bias":"true"},"inputs":[[494,0,0],[4,0,0]]},
		{"op":"_Plus","name":"1$484","attrs":{},"inputs":[[41,0,0],[495,0,0]]},
		{"op":"sigmoid","name":"1$485","attrs":{},"inputs":[[496,0,0]]},
		{"op":"FullyConnected","name":"1$486","attrs":{"num_hidden":"512","no_bias":"true"},"inputs":[[494,0,0],[7,0,0]]},
		{"op":"_Plus","name":"1$487","attrs":{},"inputs":[[71,0,0],[498,0,0]]},
		{"op":"sigmoid","name":"1$488","attrs":{},"inputs":[[499,0,0]]},
		{"op":"FullyConnected","name":"1$489","attrs":{"num_hidden":"512","no_bias":"true"},"inputs":[[494,0,0],[10,0,0]]},
		{"op":"_Mul","name":"1$490","attrs":{},"inputs":[[500,0,0],[501,0,0]]},
		{"op":"_Plus","name":"1$491","attrs":{},"inputs":[[101,0,0],[502,0,0]]},
		{"op":"tanh","name":"1$492","attrs":{},"inputs":[[503,0,0]]},
		{"op":"_RMinusScalar","name":"1$493","attrs":{"scalar":"1.0"},"inputs":[[497,0,0]]},
		{"op":"_Mul","name":"1$494","attrs":{},"inputs":[[504,0,0],[505,0,0]]},
		{"op":"_Mul","name":"1$495","attrs":{},"inputs":[[494,0,0],[497,0,0]]},
		{"op":"_Plus","name":"1$496","attrs":{},"inputs":[[506,0,0],[507,0,0]]},
		{"op":"FullyConnected","name":"1$497","attrs":{"num_hidden":"512","no_bias":"true"},"inputs":[[508,0,0],[4,0,0]]},
		{"op":"_Plus","name":"1$498","attrs":{},"inputs":[[42,0,0],[509,0,0]]},
		{"op":"sigmoid","name":"1$499","attrs":{},"inputs":[[510,0,0]]},
		{"op":"FullyConnected","name":"1$500","attrs":{"num_hidden":"512","no_bias":"true"},"inputs":[[508,0,0],[7,0,0]]},
		{"op":"_Plus","name":"1$501","attrs":{},"inputs":[[72,0,0],[512,0,0]]},
		{"op":"sigmoid","name":"1$502","attrs":{},"inputs":[[513,0,0]]},
		{"op":"FullyConnected","name":"1$503","attrs":{"num_hidden":"512","no_bias":"true"},"inputs":[[508,0,0],[10,0,0]]},
		{"op":"_Mul","name":"1$504","attrs":{},"inputs":[[514,0,0],[515,0,0]]},
		{"op":"_Plus","name":"1$505","attrs":{},"inputs":[[102,0,0],[516,0,0]]},
		{"op":"tanh","name":"1$506","attrs":{},"inputs":[[517,0,0]]},
		{"op":"_RMinusScalar","name":"1$507","attrs":{"scalar":"1.0"},"inputs":[[511,0,0]]},
		{"op":"_Mul","name":"1$508","attrs":{},"inputs":[[518,0,0],[519,0,0]]},
		{"op":"_Mul","name":"1$509","attrs":{},"inputs":[[508,0,0],[511,0,0]]},
		{"op":"_Plus","name":"1$510","attrs":{},"inputs":[[520,0,0],[521,0,0]]},
		{"op":"BlockGrad","name":"1.State","attrs":{},"inputs":[[522,0,0]]},
		{"op":"null","name":"2.InputGateInputWeights","attrs":{},"inputs":[]},
		{"op":"null","name":"2.InputGateStateWeights","attrs":{},"inputs":[]},
		{"op":"null","name":"2.InputGateBiases","attrs":{},"inputs":[]},
		{"op":"null","name":"2.ResetGateInputWeights","attrs":{},"inputs":[]},
		{"op":"null","name":"2.ResetGateStateWeights","attrs":{},"inputs":[]},
		{"op":"null","name":"2.ResetGateBiases","attrs":{},"inputs":[]},
		{"op":"null","name":"2.MemoryGateInputWeights","attrs":{},"inputs":[]},
		{"op":"null","name":"2.MemoryGateStateWeights","attrs":{},"inputs":[]},
		{"op":"null","name":"2.MemoryGateBiases","attrs":{},"inputs":[]},
		{"op":"FullyConnected","name":"2$0","attrs":{"num_hidden":"512"},"inputs":[[116,0,0],[524,0,0],[526,0,0]]},
		{"op":"FullyConnected","name":"2$1","attrs":{"num_hidden":"512"},"inputs":[[130,0,0],[524,0,0],[526,0,0]]},
		{"op":"FullyConnected","name":"2$2","attrs":{"num_hidden":"512"},"inputs":[[144,0,0],[524,0,0],[526,0,0]]},
		{"op":"FullyConnected","name":"2$3","attrs":{"num_hidden":"512"},"inputs":[[158,0,0],[524,0,0],[526,0,0]]},
		{"op":"FullyConnected","name":"2$4","attrs":{"num_hidden":"512"},"inputs":[[172,0,0],[524,0,0],[526,0,0]]},
		{"op":"FullyConnected","name":"2$5","attrs":{"num_hidden":"512"},"inputs":[[186,0,0],[524,0,0],[526,0,0]]},
		{"op":"FullyConnected","name":"2$6","attrs":{"num_hidden":"512"},"inputs":[[200,0,0],[524,0,0],[526,0,0]]},
		{"op":"FullyConnected","name":"2$7","attrs":{"num_hidden":"512"},"inputs":[[214,0,0],[524,0,0],[526,0,0]]},
		{"op":"FullyConnected","name":"2$8","attrs":{"num_hidden":"512"},"inputs":[[228,0,0],[524,0,0],[526,0,0]]},
		{"op":"FullyConnected","name":"2$9","attrs":{"num_hidden":"512"},"inputs":[[242,0,0],[524,0,0],[526,0,0]]},
		{"op":"FullyConnected","name":"2$10","attrs":{"num_hidden":"512"},"inputs":[[256,0,0],[524,0,0],[526,0,0]]},
		{"op":"FullyConnected","name":"2$11","attrs":{"num_hidden":"512"},"inputs":[[270,0,0],[524,0,0],[526,0,0]]},
		{"op":"FullyConnected","name":"2$12","attrs":{"num_hidden":"512"},"inputs":[[284,0,0],[524,0,0],[526,0,0]]},
		{"op":"FullyConnected","name":"2$13","attrs":{"num_hidden":"512"},"inputs":[[298,0,0],[524,0,0],[526,0,0]]},
		{"op":"FullyConnected","name":"2$14","attrs":{"num_hidden":"512"},"inputs":[[312,0,0],[524,0,0],[526,0,0]]},
		{"op":"FullyConnected","name":"2$15","attrs":{"num_hidden":"512"},"inputs":[[326,0,0],[524,0,0],[526,0,0]]},
		{"op":"FullyConnected","name":"2$16","attrs":{"num_hidden":"512"},"inputs":[[340,0,0],[524,0,0],[526,0,0]]},
		{"op":"FullyConnected","name":"2$17","attrs":{"num_hidden":"512"},"inputs":[[354,0,0],[524,0,0],[526,0,0]]},
		{"op":"FullyConnected","name":"2$18","attrs":{"num_hidden":"512"},"inputs":[[368,0,0],[524,0,0],[526,0,0]]},
		{"op":"FullyConnected","name":"2$19","attrs":{"num_hidden":"512"},"inputs":[[382,0,0],[524,0,0],[526,0,0]]},
		{"op":"FullyConnected","name":"2$20","attrs":{"num_hidden":"512"},"inputs":[[396,0,0],[524,0,0],[526,0,0]]},
		{"op":"FullyConnected","name":"2$21","attrs":{"num_hidden":"512"},"inputs":[[410,0,0],[524,0,0],[526,0,0]]},
		{"op":"FullyConnected","name":"2$22","attrs":{"num_hidden":"512"},"inputs":[[424,0,0],[524,0,0],[526,0,0]]},
		{"op":"FullyConnected","name":"2$23","attrs":{"num_hidden":"512"},"inputs":[[438,0,0],[524,0,0],[526,0,0]]},
		{"op":"FullyConnected","name":"2$24","attrs":{"num_hidden":"512"},"inputs":[[452,0,0],[524,0,0],[526,0,0]]},
		{"op":"FullyConnected","name":"2$25","attrs":{"num_hidden":"512"},"inputs":[[466,0,0],[524,0,0],[526,0,0]]},
		{"op":"FullyConnected","name":"2$26","attrs":{"num_hidden":"512"},"inputs":[[480,0,0],[524,0,0],[526,0,0]]},
		{"op":"FullyConnected","name":"2$27","attrs":{"num_hidden":"512"},"inputs":[[494,0,0],[524,0,0],[526,0,0]]},
		{"op":"FullyConnected","name":"2$28","attrs":{"num_hidden":"512"},"inputs":[[508,0,0],[524,0,0],[526,0,0]]},
		{"op":"FullyConnected","name":"2$29","attrs":{"num_hidden":"512"},"inputs":[[522,0,0],[524,0,0],[526,0,0]]},
		{"op":"FullyConnected","name":"2$30","attrs":{"num_hidden":"512"},"inputs":[[116,0,0],[527,0,0],[529,0,0]]},
		{"op":"FullyConnected","name":"2$31","attrs":{"num_hidden":"512"},"inputs":[[130,0,0],[527,0,0],[529,0,0]]},
		{"op":"FullyConnected","name":"2$32","attrs":{"num_hidden":"512"},"inputs":[[144,0,0],[527,0,0],[529,0,0]]},
		{"op":"FullyConnected","name":"2$33","attrs":{"num_hidden":"512"},"inputs":[[158,0,0],[527,0,0],[529,0,0]]},
		{"op":"FullyConnected","name":"2$34","attrs":{"num_hidden":"512"},"inputs":[[172,0,0],[527,0,0],[529,0,0]]},
		{"op":"FullyConnected","name":"2$35","attrs":{"num_hidden":"512"},"inputs":[[186,0,0],[527,0,0],[529,0,0]]},
		{"op":"FullyConnected","name":"2$36","attrs":{"num_hidden":"512"},"inputs":[[200,0,0],[527,0,0],[529,0,0]]},
		{"op":"FullyConnected","name":"2$37","attrs":{"num_hidden":"512"},"inputs":[[214,0,0],[527,0,0],[529,0,0]]},
		{"op":"FullyConnected","name":"2$38","attrs":{"num_hidden":"512"},"inputs":[[228,0,0],[527,0,0],[529,0,0]]},
		{"op":"FullyConnected","name":"2$39","attrs":{"num_hidden":"512"},"inputs":[[242,0,0],[527,0,0],[529,0,0]]},
		{"op":"FullyConnected","name":"2$40","attrs":{"num_hidden":"512"},"inputs":[[256,0,0],[527,0,0],[529,0,0]]},
		{"op":"FullyConnected","name":"2$41","attrs":{"num_hidden":"512"},"inputs":[[270,0,0],[527,0,0],[529,0,0]]},
		{"op":"FullyConnected","name":"2$42","attrs":{"num_hidden":"512"},"inputs":[[284,0,0],[527,0,0],[529,0,0]]},
		{"op":"FullyConnected","name":"2$43","attrs":{"num_hidden":"512"},"inputs":[[298,0,0],[527,0,0],[529,0,0]]},
		{"op":"FullyConnected","name":"2$44","attrs":{"num_hidden":"512"},"inputs":[[312,0,0],[527,0,0],[529,0,0]]},
		{"op":"FullyConnected","name":"2$45","attrs":{"num_hidden":"512"},"inputs":[[326,0,0],[527,0,0],[529,0,0]]},
		{"op":"FullyConnected","name":"2$46","attrs":{"num_hidden":"512"},"inputs":[[340,0,0],[527,0,0],[529,0,0]]},
		{"op":"FullyConnected","name":"2$47","attrs":{"num_hidden":"512"},"inputs":[[354,0,0],[527,0,0],[529,0,0]]},
		{"op":"FullyConnected","name":"2$48","attrs":{"num_hidden":"512"},"inputs":[[368,0,0],[527,0,0],[529,0,0]]},
		{"op":"FullyConnected","name":"2$49","attrs":{"num_hidden":"512"},"inputs":[[382,0,0],[527,0,0],[529,0,0]]},
		{"op":"FullyConnected","name":"2$50","attrs":{"num_hidden":"512"},"inputs":[[396,0,0],[527,0,0],[529,0,0]]},
		{"op":"FullyConnected","name":"2$51","attrs":{"num_hidden":"512"},"inputs":[[410,0,0],[527,0,0],[529,0,0]]},
		{"op":"FullyConnected","name":"2$52","attrs":{"num_hidden":"512"},"inputs":[[424,0,0],[527,0,0],[529,0,0]]},
		{"op":"FullyConnected","name":"2$53","attrs":{"num_hidden":"512"},"inputs":[[438,0,0],[527,0,0],[529,0,0]]},
		{"op":"FullyConnected","name":"2$54","attrs":{"num_hidden":"512"},"inputs":[[452,0,0],[527,0,0],[529,0,0]]},
		{"op":"FullyConnected","name":"2$55","attrs":{"num_hidden":"512"},"inputs":[[466,0,0],[527,0,0],[529,0,0]]},
		{"op":"FullyConnected","name":"2$56","attrs":{"num_hidden":"512"},"inputs":[[480,0,0],[527,0,0],[529,0,0]]},
		{"op":"FullyConnected","name":"2$57","attrs":{"num_hidden":"512"},"inputs":[[494,0,0],[527,0,0],[529,0,0]]},
		{"op":"FullyConnected","name":"2$58","attrs":{"num_hidden":"512"},"inputs":[[508,0,0],[527,0,0],[529,0,0]]},
		{"op":"FullyConnected","name":"2$59","attrs":{"num_hidden":"512"},"inputs":[[522,0,0],[527,0,0],[529,0,0]]},
		{"op":"FullyConnected","name":"2$60","attrs":{"num_hidden":"512"},"inputs":[[116,0,0],[530,0,0],[532,0,0]]},
		{"op":"FullyConnected","name":"2$61","attrs":{"num_hidden":"512"},"inputs":[[130,0,0],[530,0,0],[532,0,0]]},
		{"op":"FullyConnected","name":"2$62","attrs":{"num_hidden":"512"},"inputs":[[144,0,0],[530,0,0],[532,0,0]]},
		{"op":"FullyConnected","name":"2$63","attrs":{"num_hidden":"512"},"inputs":[[158,0,0],[530,0,0],[532,0,0]]},
		{"op":"FullyConnected","name":"2$64","attrs":{"num_hidden":"512"},"inputs":[[172,0,0],[530,0,0],[532,0,0]]},
		{"op":"FullyConnected","name":"2$65","attrs":{"num_hidden":"512"},"inputs":[[186,0,0],[530,0,0],[532,0,0]]},
		{"op":"FullyConnected","name":"2$66","attrs":{"num_hidden":"512"},"inputs":[[200,0,0],[530,0,0],[532,0,0]]},
		{"op":"FullyConnected","name":"2$67","attrs":{"num_hidden":"512"},"inputs":[[214,0,0],[530,0,0],[532,0,0]]},
		{"op":"FullyConnected","name":"2$68","attrs":{"num_hidden":"512"},"inputs":[[228,0,0],[530,0,0],[532,0,0]]},
		{"op":"FullyConnected","name":"2$69","attrs":{"num_hidden":"512"},"inputs":[[242,0,0],[530,0,0],[532,0,0]]},
		{"op":"FullyConnected","name":"2$70","attrs":{"num_hidden":"512"},"inputs":[[256,0,0],[530,0,0],[532,0,0]]},
		{"op":"FullyConnected","name":"2$71","attrs":{"num_hidden":"512"},"inputs":[[270,0,0],[530,0,0],[532,0,0]]},
		{"op":"FullyConnected","name":"2$72","attrs":{"num_hidden":"512"},"inputs":[[284,0,0],[530,0,0],[532,0,0]]},
		{"op":"FullyConnected","name":"2$73","attrs":{"num_hidden":"512"},"inputs":[[298,0,0],[530,0,0],[532,0,0]]},
		{"op":"FullyConnected","name":"2$74","attrs":{"num_hidden":"512"},"inputs":[[312,0,0],[530,0,0],[532,0,0]]},
		{"op":"FullyConnected","name":"2$75","attrs":{"num_hidden":"512"},"inputs":[[326,0,0],[530,0,0],[532,0,0]]},
		{"op":"FullyConnected","name":"2$76","attrs":{"num_hidden":"512"},"inputs":[[340,0,0],[530,0,0],[532,0,0]]},
		{"op":"FullyConnected","name":"2$77","attrs":{"num_hidden":"512"},"inputs":[[354,0,0],[530,0,0],[532,0,0]]},
		{"op":"FullyConnected","name":"2$78","attrs":{"num_hidden":"512"},"inputs":[[368,0,0],[530,0,0],[532,0,0]]},
		{"op":"FullyConnected","name":"2$79","attrs":{"num_hidden":"512"},"inputs":[[382,0,0],[530,0,0],[532,0,0]]},
		{"op":"FullyConnected","name":"2$80","attrs":{"num_hidden":"512"},"inputs":[[396,0,0],[530,0,0],[532,0,0]]},
		{"op":"FullyConnected","name":"2$81","attrs":{"num_hidden":"512"},"inputs":[[410,0,0],[530,0,0],[532,0,0]]},
		{"op":"FullyConnected","name":"2$82","attrs":{"num_hidden":"512"},"inputs":[[424,0,0],[530,0,0],[532,0,0]]},
		{"op":"FullyConnected","name":"2$83","attrs":{"num_hidden":"512"},"inputs":[[438,0,0],[530,0,0],[532,0,0]]},
		{"op":"FullyConnected","name":"2$84","attrs":{"num_hidden":"512"},"inputs":[[452,0,0],[530,0,0],[532,0,0]]},
		{"op":"FullyConnected","name":"2$85","attrs":{"num_hidden":"512"},"inputs":[[466,0,0],[530,0,0],[532,0,0]]},
		{"op":"FullyConnected","name":"2$86","attrs":{"num_hidden":"512"},"inputs":[[480,0,0],[530,0,0],[532,0,0]]},
		{"op":"FullyConnected","name":"2$87","attrs":{"num_hidden":"512"},"inputs":[[494,0,0],[530,0,0],[532,0,0]]},
		{"op":"FullyConnected","name":"2$88","attrs":{"num_hidden":"512"},"inputs":[[508,0,0],[530,0,0],[532,0,0]]},
		{"op":"FullyConnected","name":"2$89","attrs":{"num_hidden":"512"},"inputs":[[522,0,0],[530,0,0],[532,0,0]]},
		{"op":"FullyConnected","name":"2$90","attrs":{"num_hidden":"512","no_bias":"true"},"inputs":[[2,0,0],[525,0,0]]},
		{"op":"_Plus","name":"2$91","attrs":{},"inputs":[[533,0,0],[623,0,0]]},
		{"op":"sigmoid","name":"2$92","attrs":{},"inputs":[[624,0,0]]},
		{"op":"FullyConnected","name":"2$93","attrs":{"num_hidden":"512","no_bias":"true"},"inputs":[[2,0,0],[528,0,0]]},
		{"op":"_Plus","name":"2$94","attrs":{},"inputs":[[563,0,0],[626,0,0]]},
		{"op":"sigmoid","name":"2$95","attrs":{},"inputs":[[627,0,0]]},
		{"op":"FullyConnected","name":"2$96","attrs":{"num_hidden":"512","no_bias":"true"},"inputs":[[2,0,0],[531,0,0]]},
		{"op":"_Mul","name":"2$97","attrs":{},"inputs":[[628,0,0],[629,0,0]]},
		{"op":"_Plus","name":"2$98","attrs":{},"inputs":[[593,0,0],[630,0,0]]},
		{"op":"tanh","name":"2$99","attrs":{},"inputs":[[631,0,0]]},
		{"op":"_RMinusScalar","name":"2$100","attrs":{"scalar":"1.0"},"inputs":[[625,0,0]]},
		{"op":"_Mul","name":"2$101","attrs":{},"inputs":[[632,0,0],[633,0,0]]},
		{"op":"_Mul","name":"2$102","attrs":{},"inputs":[[2,0,0],[625,0,0]]},
		{"op":"_Plus","name":"2$103","attrs":{},"inputs":[[634,0,0],[635,0,0]]},
		{"op":"FullyConnected","name":"2$104","attrs":{"num_hidden":"512","no_bias":"true"},"inputs":[[636,0,0],[525,0,0]]},
		{"op":"_Plus","name":"2$105","attrs":{},"inputs":[[534,0,0],[637,0,0]]},
		{"op":"sigmoid","name":"2$106","attrs":{},"inputs":[[638,0,0]]},
		{"op":"FullyConnected","name":"2$107","attrs":{"num_hidden":"512","no_bias":"true"},"inputs":[[636,0,0],[528,0,0]]},
		{"op":"_Plus","name":"2$108","attrs":{},"inputs":[[564,0,0],[640,0,0]]},
		{"op":"sigmoid","name":"2$109","attrs":{},"inputs":[[641,0,0]]},
		{"op":"FullyConnected","name":"2$110","attrs":{"num_hidden":"512","no_bias":"true"},"inputs":[[636,0,0],[531,0,0]]},
		{"op":"_Mul","name":"2$111","attrs":{},"inputs":[[642,0,0],[643,0,0]]},
		{"op":"_Plus","name":"2$112","attrs":{},"inputs":[[594,0,0],[644,0,0]]},
		{"op":"tanh","name":"2$113","attrs":{},"inputs":[[645,0,0]]},
		{"op":"_RMinusScalar","name":"2$114","attrs":{"scalar":"1.0"},"inputs":[[639,0,0]]},
		{"op":"_Mul","name":"2$115","attrs":{},"inputs":[[646,0,0],[647,0,0]]},
		{"op":"_Mul","name":"2$116","attrs":{},"inputs":[[636,0,0],[639,0,0]]},
		{"op":"_Plus","name":"2$117","attrs":{},"inputs":[[648,0,0],[649,0,0]]},
		{"op":"FullyConnected","name":"2$118","attrs":{"num_hidden":"512","no_bias":"true"},"inputs":[[650,0,0],[525,0,0]]},
		{"op":"_Plus","name":"2$119","attrs":{},"inputs":[[535,0,0],[651,0,0]]},
		{"op":"sigmoid","name":"2$120","attrs":{},"inputs":[[652,0,0]]},
		{"op":"FullyConnected","name":"2$121","attrs":{"num_hidden":"512","no_bias":"true"},"inputs":[[650,0,0],[528,0,0]]},
		{"op":"_Plus","name":"2$122","attrs":{},"inputs":[[565,0,0],[654,0,0]]},
		{"op":"sigmoid","name":"2$123","attrs":{},"inputs":[[655,0,0]]},
		{"op":"FullyConnected","name":"2$124","attrs":{"num_hidden":"512","no_bias":"true"},"inputs":[[650,0,0],[531,0,0]]},
		{"op":"_Mul","name":"2$125","attrs":{},"inputs":[[656,0,0],[657,0,0]]},
		{"op":"_Plus","name":"2$126","attrs":{},"inputs":[[595,0,0],[658,0,0]]},
		{"op":"tanh","name":"2$127","attrs":{},"inputs":[[659,0,0]]},
		{"op":"_RMinusScalar","name":"2$128","attrs":{"scalar":"1.0"},"inputs":[[653,0,0]]},
		{"op":"_Mul","name":"2$129","attrs":{},"inputs":[[660,0,0],[661,0,0]]},
		{"op":"_Mul","name":"2$130","attrs":{},"inputs":[[650,0,0],[653,0,0]]},
		{"op":"_Plus","name":"2$131","attrs":{},"inputs":[[662,0,0],[663,0,0]]},
		{"op":"FullyConnected","name":"2$132","attrs":{"num_hidden":"512","no_bias":"true"},"inputs":[[664,0,0],[525,0,0]]},
		{"op":"_Plus","name":"2$133","attrs":{},"inputs":[[536,0,0],[665,0,0]]},
		{"op":"sigmoid","name":"2$134","attrs":{},"inputs":[[666,0,0]]},
		{"op":"FullyConnected","name":"2$135","attrs":{"num_hidden":"512","no_bias":"true"},"inputs":[[664,0,0],[528,0,0]]},
		{"op":"_Plus","name":"2$136","attrs":{},"inputs":[[566,0,0],[668,0,0]]},
		{"op":"sigmoid","name":"2$137","attrs":{},"inputs":[[669,0,0]]},
		{"op":"FullyConnected","name":"2$138","attrs":{"num_hidden":"512","no_bias":"true"},"inputs":[[664,0,0],[531,0,0]]},
		{"op":"_Mul","name":"2$139","attrs":{},"inputs":[[670,0,0],[671,0,0]]},
		{"op":"_Plus","name":"2$140","attrs":{},"inputs":[[596,0,0],[672,0,0]]},
		{"op":"tanh","name":"2$141","attrs":{},"inputs":[[673,0,0]]},
		{"op":"_RMinusScalar","name":"2$142","attrs":{"scalar":"1.0"},"inputs":[[667,0,0]]},
		{"op":"_Mul","name":"2$143","attrs":{},"inputs":[[674,0,0],[675,0,0]]},
		{"op":"_Mul","name":"2$144","attrs":{},"inputs":[[664,0,0],[667,0,0]]},
		{"op":"_Plus","name":"2$145","attrs":{},"inputs":[[676,0,0],[677,0,0]]},
		{"op":"FullyConnected","name":"2$146","attrs":{"num_hidden":"512","no_bias":"true"},"inputs":[[678,0,0],[525,0,0]]},
		{"op":"_Plus","name":"2$147","attrs":{},"inputs":[[537,0,0],[679,0,0]]},
		{"op":"sigmoid","name":"2$148","attrs":{},"inputs":[[680,0,0]]},
		{"op":"FullyConnected","name":"2$149","attrs":{"num_hidden":"512","no_bias":"true"},"inputs":[[678,0,0],[528,0,0]]},
		{"op":"_Plus","name":"2$150","attrs":{},"inputs":[[567,0,0],[682,0,0]]},
		{"op":"sigmoid","name":"2$151","attrs":{},"inputs":[[683,0,0]]},
		{"op":"FullyConnected","name":"2$152","attrs":{"num_hidden":"512","no_bias":"true"},"inputs":[[678,0,0],[531,0,0]]},
		{"op":"_Mul","name":"2$153","attrs":{},"inputs":[[684,0,0],[685,0,0]]},
		{"op":"_Plus","name":"2$154","attrs":{},"inputs":[[597,0,0],[686,0,0]]},
		{"op":"tanh","name":"2$155","attrs":{},"inputs":[[687,0,0]]},
		{"op":"_RMinusScalar","name":"2$156","attrs":{"scalar":"1.0"},"inputs":[[681,0,0]]},
		{"op":"_Mul","name":"2$157","attrs":{},"inputs":[[688,0,0],[689,0,0]]},
		{"op":"_Mul","name":"2$158","attrs":{},"inputs":[[678,0,0],[681,0,0]]},
		{"op":"_Plus","name":"2$159","attrs":{},"inputs":[[690,0,0],[691,0,0]]},
		{"op":"FullyConnected","name":"2$160","attrs":{"num_hidden":"512","no_bias":"true"},"inputs":[[692,0,0],[525,0,0]]},
		{"op":"_Plus","name":"2$161","attrs":{},"inputs":[[538,0,0],[693,0,0]]},
		{"op":"sigmoid","name":"2$162","attrs":{},"inputs":[[694,0,0]]},
		{"op":"FullyConnected","name":"2$163","attrs":{"num_hidden":"512","no_bias":"true"},"inputs":[[692,0,0],[528,0,0]]},
		{"op":"_Plus","name":"2$164","attrs":{},"inputs":[[568,0,0],[696,0,0]]},
		{"op":"sigmoid","name":"2$165","attrs":{},"inputs":[[697,0,0]]},
		{"op":"FullyConnected","name":"2$166","attrs":{"num_hidden":"512","no_bias":"true"},"inputs":[[692,0,0],[531,0,0]]},
		{"op":"_Mul","name":"2$167","attrs":{},"inputs":[[698,0,0],[699,0,0]]},
		{"op":"_Plus","name":"2$168","attrs":{},"inputs":[[598,0,0],[700,0,0]]},
		{"op":"tanh","name":"2$169","attrs":{},"inputs":[[701,0,0]]},
		{"op":"_RMinusScalar","name":"2$170","attrs":{"scalar":"1.0"},"inputs":[[695,0,0]]},
		{"op":"_Mul","name":"2$171","attrs":{},"inputs":[[702,0,0],[703,0,0]]},
		{"op":"_Mul","name":"2$172","attrs":{},"inputs":[[692,0,0],[695,0,0]]},
		{"op":"_Plus","name":"2$173","attrs":{},"inputs":[[704,0,0],[705,0,0]]},
		{"op":"FullyConnected","name":"2$174","attrs":{"num_hidden":"512","no_bias":"true"},"inputs":[[706,0,0],[525,0,0]]},
		{"op":"_Plus","name":"2$175","attrs":{},"inputs":[[539,0,0],[707,0,0]]},
		{"op":"sigmoid","name":"2$176","attrs":{},"inputs":[[708,0,0]]},
		{"op":"FullyConnected","name":"2$177","attrs":{"num_hidden":"512","no_bias":"true"},"inputs":[[706,0,0],[528,0,0]]},
		{"op":"_Plus","name":"2$178","attrs":{},"inputs":[[569,0,0],[710,0,0]]},
		{"op":"sigmoid","name":"2$179","attrs":{},"inputs":[[711,0,0]]},
		{"op":"FullyConnected","name":"2$180","attrs":{"num_hidden":"512","no_bias":"true"},"inputs":[[706,0,0],[531,0,0]]},
		{"op":"_Mul","name":"2$181","attrs":{},"inputs":[[712,0,0],[713,0,0]]},
		{"op":"_Plus","name":"2$182","attrs":{},"inputs":[[599,0,0],[714,0,0]]},
		{"op":"tanh","name":"2$183","attrs":{},"inputs":[[715,0,0]]},
		{"op":"_RMinusScalar","name":"2$184","attrs":{"scalar":"1.0"},"inputs":[[709,0,0]]},
		{"op":"_Mul","name":"2$185","attrs":{},"inputs":[[716,0,0],[717,0,0]]},
		{"op":"_Mul","name":"2$186","attrs":{},"inputs":[[706,0,0],[709,0,0]]},
		{"op":"_Plus","name":"2$187","attrs":{},"inputs":[[718,0,0],[719,0,0]]},
		{"op":"FullyConnected","name":"2$188","attrs":{"num_hidden":"512","no_bias":"true"},"inputs":[[720,0,0],[525,0,0]]},
		{"op":"_Plus","name":"2$189","attrs":{},"inputs":[[540,0,0],[721,0,0]]},
		{"op":"sigmoid","name":"2$190","attrs":{},"inputs":[[722,0,0]]},
		{"op":"FullyConnected","name":"2$191","attrs":{"num_hidden":"512","no_bias":"true"},"inputs":[[720,0,0],[528,0,0]]},
		{"op":"_Plus","name":"2$192","attrs":{},"inputs":[[570,0,0],[724,0,0]]},
		{"op":"sigmoid","name":"2$193","attrs":{},"inputs":[[725,0,0]]},
		{"op":"FullyConnected","name":"2$194","attrs":{"num_hidden":"512","no_bias":"true"},"inputs":[[720,0,0],[531,0,0]]},
		{"op":"_Mul","name":"2$195","attrs":{},"inputs":[[726,0,0],[727,0,0]]},
		{"op":"_Plus","name":"2$196","attrs":{},"inputs":[[600,0,0],[728,0,0]]},
		{"op":"tanh","name":"2$197","attrs":{},"inputs":[[729,0,0]]},
		{"op":"_RMinusScalar","name":"2$198","attrs":{"scalar":"1.0"},"inputs":[[723,0,0]]},
		{"op":"_Mul","name":"2$199","attrs":{},"inputs":[[730,0,0],[731,0,0]]},
		{"op":"_Mul","name":"2$200","attrs":{},"inputs":[[720,0,0],[723,0,0]]},
		{"op":"_Plus","name":"2$201","attrs":{},"inputs":[[732,0,0],[733,0,0]]},
		{"op":"FullyConnected","name":"2$202","attrs":{"num_hidden":"512","no_bias":"true"},"inputs":[[734,0,0],[525,0,0]]},
		{"op":"_Plus","name":"2$203","attrs":{},"inputs":[[541,0,0],[735,0,0]]},
		{"op":"sigmoid","name":"2$204","attrs":{},"inputs":[[736,0,0]]},
		{"op":"FullyConnected","name":"2$205","attrs":{"num_hidden":"512","no_bias":"true"},"inputs":[[734,0,0],[528,0,0]]},
		{"op":"_Plus","name":"2$206","attrs":{},"inputs":[[571,0,0],[738,0,0]]},
		{"op":"sigmoid","name":"2$207","attrs":{},"inputs":[[739,0,0]]},
		{"op":"FullyConnected","name":"2$208","attrs":{"num_hidden":"512","no_bias":"true"},"inputs":[[734,0,0],[531,0,0]]},
		{"op":"_Mul","name":"2$209","attrs":{},"inputs":[[740,0,0],[741,0,0]]},
		{"op":"_Plus","name":"2$210","attrs":{},"inputs":[[601,0,0],[742,0,0]]},
		{"op":"tanh","name":"2$211","attrs":{},"inputs":[[743,0,0]]},
		{"op":"_RMinusScalar","name":"2$212","attrs":{"scalar":"1.0"},"inputs":[[737,0,0]]},
		{"op":"_Mul","name":"2$213","attrs":{},"inputs":[[744,0,0],[745,0,0]]},
		{"op":"_Mul","name":"2$214","attrs":{},"inputs":[[734,0,0],[737,0,0]]},
		{"op":"_Plus","name":"2$215","attrs":{},"inputs":[[746,0,0],[747,0,0]]},
		{"op":"FullyConnected","name":"2$216","attrs":{"num_hidden":"512","no_bias":"true"},"inputs":[[748,0,0],[525,0,0]]},
		{"op":"_Plus","name":"2$217","attrs":{},"inputs":[[542,0,0],[749,0,0]]},
		{"op":"sigmoid","name":"2$218","attrs":{},"inputs":[[750,0,0]]},
		{"op":"FullyConnected","name":"2$219","attrs":{"num_hidden":"512","no_bias":"true"},"inputs":[[748,0,0],[528,0,0]]},
		{"op":"_Plus","name":"2$220","attrs":{},"inputs":[[572,0,0],[752,0,0]]},
		{"op":"sigmoid","name":"2$221","attrs":{},"inputs":[[753,0,0]]},
		{"op":"FullyConnected","name":"2$222","attrs":{"num_hidden":"512","no_bias":"true"},"inputs":[[748,0,0],[531,0,0]]},
		{"op":"_Mul","name":"2$223","attrs":{},"inputs":[[754,0,0],[755,0,0]]},
		{"op":"_Plus","name":"2$224","attrs":{},"inputs":[[602,0,0],[756,0,0]]},
		{"op":"tanh","name":"2$225","attrs":{},"inputs":[[757,0,0]]},
		{"op":"_RMinusScalar","name":"2$226","attrs":{"scalar":"1.0"},"inputs":[[751,0,0]]},
		{"op":"_Mul","name":"2$227","attrs":{},"inputs":[[758,0,0],[759,0,0]]},
		{"op":"_Mul","name":"2$228","attrs":{},"inputs":[[748,0,0],[751,0,0]]},
		{"op":"_Plus","name":"2$229","attrs":{},"inputs":[[760,0,0],[761,0,0]]},
		{"op":"FullyConnected","name":"2$230","attrs":{"num_hidden":"512","no_bias":"true"},"inputs":[[762,0,0],[525,0,0]]},
		{"op":"_Plus","name":"2$231","attrs":{},"inputs":[[543,0,0],[763,0,0]]},
		{"op":"sigmoid","name":"2$232","attrs":{},"inputs":[[764,0,0]]},
		{"op":"FullyConnected","name":"2$233","attrs":{"num_hidden":"512","no_bias":"true"},"inputs":[[762,0,0],[528,0,0]]},
		{"op":"_Plus","name":"2$234","attrs":{},"inputs":[[573,0,0],[766,0,0]]},
		{"op":"sigmoid","name":"2$235","attrs":{},"inputs":[[767,0,0]]},
		{"op":"FullyConnected","name":"2$236","attrs":{"num_hidden":"512","no_bias":"true"},"inputs":[[762,0,0],[531,0,0]]},
		{"op":"_Mul","name":"2$237","attrs":{},"inputs":[[768,0,0],[769,0,0]]},
		{"op":"_Plus","name":"2$238","attrs":{},"inputs":[[603,0,0],[770,0,0]]},
		{"op":"tanh","name":"2$239","attrs":{},"inputs":[[771,0,0]]},
		{"op":"_RMinusScalar","name":"2$240","attrs":{"scalar":"1.0"},"inputs":[[765,0,0]]},
		{"op":"_Mul","name":"2$241","attrs":{},"inputs":[[772,0,0],[773,0,0]]},
		{"op":"_Mul","name":"2$242","attrs":{},"inputs":[[762,0,0],[765,0,0]]},
		{"op":"_Plus","name":"2$243","attrs":{},"inputs":[[774,0,0],[775,0,0]]},
		{"op":"FullyConnected","name":"2$244","attrs":{"num_hidden":"512","no_bias":"true"},"inputs":[[776,0,0],[525,0,0]]},
		{"op":"_Plus","name":"2$245","attrs":{},"inputs":[[544,0,0],[777,0,0]]},
		{"op":"sigmoid","name":"2$246","attrs":{},"inputs":[[778,0,0]]},
		{"op":"FullyConnected","name":"2$247","attrs":{"num_hidden":"512","no_bias":"true"},"inputs":[[776,0,0],[528,0,0]]},
		{"op":"_Plus","name":"2$248","attrs":{},"inputs":[[574,0,0],[780,0,0]]},
		{"op":"sigmoid","name":"2$249","attrs":{},"inputs":[[781,0,0]]},
		{"op":"FullyConnected","name":"2$250","attrs":{"num_hidden":"512","no_bias":"true"},"inputs":[[776,0,0],[531,0,0]]},
		{"op":"_Mul","name":"2$251","attrs":{},"inputs":[[782,0,0],[783,0,0]]},
		{"op":"_Plus","name":"2$252","attrs":{},"inputs":[[604,0,0],[784,0,0]]},
		{"op":"tanh","name":"2$253","attrs":{},"inputs":[[785,0,0]]},
		{"op":"_RMinusScalar","name":"2$254","attrs":{"scalar":"1.0"},"inputs":[[779,0,0]]},
		{"op":"_Mul","name":"2$255","attrs":{},"inputs":[[786,0,0],[787,0,0]]},
		{"op":"_Mul","name":"2$256","attrs":{},"inputs":[[776,0,0],[779,0,0]]},
		{"op":"_Plus","name":"2$257","attrs":{},"inputs":[[788,0,0],[789,0,0]]},
		{"op":"FullyConnected","name":"2$258","attrs":{"num_hidden":"512","no_bias":"true"},"inputs":[[790,0,0],[525,0,0]]},
		{"op":"_Plus","name":"2$259","attrs":{},"inputs":[[545,0,0],[791,0,0]]},
		{"op":"sigmoid","name":"2$260","attrs":{},"inputs":[[792,0,0]]},
		{"op":"FullyConnected","name":"2$261","attrs":{"num_hidden":"512","no_bias":"true"},"inputs":[[790,0,0],[528,0,0]]},
		{"op":"_Plus","name":"2$262","attrs":{},"inputs":[[575,0,0],[794,0,0]]},
		{"op":"sigmoid","name":"2$263","attrs":{},"inputs":[[795,0,0]]},
		{"op":"FullyConnected","name":"2$264","attrs":{"num_hidden":"512","no_bias":"true"},"inputs":[[790,0,0],[531,0,0]]},
		{"op":"_Mul","name":"2$265","attrs":{},"inputs":[[796,0,0],[797,0,0]]},
		{"op":"_Plus","name":"2$266","attrs":{},"inputs":[[605,0,0],[798,0,0]]},
		{"op":"tanh","name":"2$267","attrs":{},"inputs":[[799,0,0]]},
		{"op":"_RMinusScalar","name":"2$268","attrs":{"scalar":"1.0"},"inputs":[[793,0,0]]},
		{"op":"_Mul","name":"2$269","attrs":{},"inputs":[[800,0,0],[801,0,0]]},
		{"op":"_Mul","name":"2$270","attrs":{},"inputs":[[790,0,0],[793,0,0]]},
		{"op":"_Plus","name":"2$271","attrs":{},"inputs":[[802,0,0],[803,0,0]]},
		{"op":"FullyConnected","name":"2$272","attrs":{"num_hidden":"512","no_bias":"true"},"inputs":[[804,0,0],[525,0,0]]},
		{"op":"_Plus","name":"2$273","attrs":{},"inputs":[[546,0,0],[805,0,0]]},
		{"op":"sigmoid","name":"2$274","attrs":{},"inputs":[[806,0,0]]},
		{"op":"FullyConnected","name":"2$275","attrs":{"num_hidden":"512","no_bias":"true"},"inputs":[[804,0,0],[528,0,0]]},
		{"op":"_Plus","name":"2$276","attrs":{},"inputs":[[576,0,0],[808,0,0]]},
		{"op":"sigmoid","name":"2$277","attrs":{},"inputs":[[809,0,0]]},
		{"op":"FullyConnected","name":"2$278","attrs":{"num_hidden":"512","no_bias":"true"},"inputs":[[804,0,0],[531,0,0]]},
		{"op":"_Mul","name":"2$279","attrs":{},"inputs":[[810,0,0],[811,0,0]]},
		{"op":"_Plus","name":"2$280","attrs":{},"inputs":[[606,0,0],[812,0,0]]},
		{"op":"tanh","name":"2$281","attrs":{},"inputs":[[813,0,0]]},
		{"op":"_RMinusScalar","name":"2$282","attrs":{"scalar":"1.0"},"inputs":[[807,0,0]]},
		{"op":"_Mul","name":"2$283","attrs":{},"inputs":[[814,0,0],[815,0,0]]},
		{"op":"_Mul","name":"2$284","attrs":{},"inputs":[[804,0,0],[807,0,0]]},
		{"op":"_Plus","name":"2$285","attrs":{},"inputs":[[816,0,0],[817,0,0]]},
		{"op":"FullyConnected","name":"2$286","attrs":{"num_hidden":"512","no_bias":"true"},"inputs":[[818,0,0],[525,0,0]]},
		{"op":"_Plus","name":"2$287","attrs":{},"inputs":[[547,0,0],[819,0,0]]},
		{"op":"sigmoid","name":"2$288","attrs":{},"inputs":[[820,0,0]]},
		{"op":"FullyConnected","name":"2$289","attrs":{"num_hidden":"512","no_bias":"true"},"inputs":[[818,0,0],[528,0,0]]},
		{"op":"_Plus","name":"2$290","attrs":{},"inputs":[[577,0,0],[822,0,0]]},
		{"op":"sigmoid","name":"2$291","attrs":{},"inputs":[[823,0,0]]},
		{"op":"FullyConnected","name":"2$292","attrs":{"num_hidden":"512","no_bias":"true"},"inputs":[[818,0,0],[531,0,0]]},
		{"op":"_Mul","name":"2$293","attrs":{},"inputs":[[824,0,0],[825,0,0]]},
		{"op":"_Plus","name":"2$294","attrs":{},"inputs":[[607,0,0],[826,0,0]]},
		{"op":"tanh","name":"2$295","attrs":{},"inputs":[[827,0,0]]},
		{"op":"_RMinusScalar","name":"2$296","attrs":{"scalar":"1.0"},"inputs":[[821,0,0]]},
		{"op":"_Mul","name":"2$297","attrs":{},"inputs":[[828,0,0],[829,0,0]]},
		{"op":"_Mul","name":"2$298","attrs":{},"inputs":[[818,0,0],[821,0,0]]},
		{"op":"_Plus","name":"2$299","attrs":{},"inputs":[[830,0,0],[831,0,0]]},
		{"op":"FullyConnected","name":"2$300","attrs":{"num_hidden":"512","no_bias":"true"},"inputs":[[832,0,0],[525,0,0]]},
		{"op":"_Plus","name":"2$301","attrs":{},"inputs":[[548,0,0],[833,0,0]]},
		{"op":"sigmoid","name":"2$302","attrs":{},"inputs":[[834,0,0]]},
		{"op":"FullyConnected","name":"2$303","attrs":{"num_hidden":"512","no_bias":"true"},"inputs":[[832,0,0],[528,0,0]]},
		{"op":"_Plus","name":"2$304","attrs":{},"inputs":[[578,0,0],[836,0,0]]},
		{"op":"sigmoid","name":"2$305","attrs":{},"inputs":[[837,0,0]]},
		{"op":"FullyConnected","name":"2$306","attrs":{"num_hidden":"512","no_bias":"true"},"inputs":[[832,0,0],[531,0,0]]},
		{"op":"_Mul","name":"2$307","attrs":{},"inputs":[[838,0,0],[839,0,0]]},
		{"op":"_Plus","name":"2$308","attrs":{},"inputs":[[608,0,0],[840,0,0]]},
		{"op":"tanh","name":"2$309","attrs":{},"inputs":[[841,0,0]]},
		{"op":"_RMinusScalar","name":"2$310","attrs":{"scalar":"1.0"},"inputs":[[835,0,0]]},
		{"op":"_Mul","name":"2$311","attrs":{},"inputs":[[842,0,0],[843,0,0]]},
		{"op":"_Mul","name":"2$312","attrs":{},"inputs":[[832,0,0],[835,0,0]]},
		{"op":"_Plus","name":"2$313","attrs":{},"inputs":[[844,0,0],[845,0,0]]},
		{"op":"FullyConnected","name":"2$314","attrs":{"num_hidden":"512","no_bias":"true"},"inputs":[[846,0,0],[525,0,0]]},
		{"op":"_Plus","name":"2$315","attrs":{},"inputs":[[549,0,0],[847,0,0]]},
		{"op":"sigmoid","name":"2$316","attrs":{},"inputs":[[848,0,0]]},
		{"op":"FullyConnected","name":"2$317","attrs":{"num_hidden":"512","no_bias":"true"},"inputs":[[846,0,0],[528,0,0]]},
		{"op":"_Plus","name":"2$318","attrs":{},"inputs":[[579,0,0],[850,0,0]]},
		{"op":"sigmoid","name":"2$319","attrs":{},"inputs":[[851,0,0]]},
		{"op":"FullyConnected","name":"2$320","attrs":{"num_hidden":"512","no_bias":"true"},"inputs":[[846,0,0],[531,0,0]]},
		{"op":"_Mul","name":"2$321","attrs":{},"inputs":[[852,0,0],[853,0,0]]},
		{"op":"_Plus","name":"2$322","attrs":{},"inputs":[[609,0,0],[854,0,0]]},
		{"op":"tanh","name":"2$323","attrs":{},"inputs":[[855,0,0]]},
		{"op":"_RMinusScalar","name":"2$324","attrs":{"scalar":"1.0"},"inputs":[[849,0,0]]},
		{"op":"_Mul","name":"2$325","attrs":{},"inputs":[[856,0,0],[857,0,0]]},
		{"op":"_Mul","name":"2$326","attrs":{},"inputs":[[846,0,0],[849,0,0]]},
		{"op":"_Plus","name":"2$327","attrs":{},"inputs":[[858,0,0],[859,0,0]]},
		{"op":"FullyConnected","name":"2$328","attrs":{"num_hidden":"512","no_bias":"true"},"inputs":[[860,0,0],[525,0,0]]},
		{"op":"_Plus","name":"2$329","attrs":{},"inputs":[[550,0,0],[861,0,0]]},
		{"op":"sigmoid","name":"2$330","attrs":{},"inputs":[[862,0,0]]},
		{"op":"FullyConnected","name":"2$331","attrs":{"num_hidden":"512","no_bias":"true"},"inputs":[[860,0,0],[528,0,0]]},
		{"op":"_Plus","name":"2$332","attrs":{},"inputs":[[580,0,0],[864,0,0]]},
		{"op":"sigmoid","name":"2$333","attrs":{},"inputs":[[865,0,0]]},
		{"op":"FullyConnected","name":"2$334","attrs":{"num_hidden":"512","no_bias":"true"},"inputs":[[860,0,0],[531,0,0]]},
		{"op":"_Mul","name":"2$335","attrs":{},"inputs":[[866,0,0],[867,0,0]]},
		{"op":"_Plus","name":"2$336","attrs":{},"inputs":[[610,0,0],[868,0,0]]},
		{"op":"tanh","name":"2$337","attrs":{},"inputs":[[869,0,0]]},
		{"op":"_RMinusScalar","name":"2$338","attrs":{"scalar":"1.0"},"inputs":[[863,0,0]]},
		{"op":"_Mul","name":"2$339","attrs":{},"inputs":[[870,0,0],[871,0,0]]},
		{"op":"_Mul","name":"2$340","attrs":{},"inputs":[[860,0,0],[863,0,0]]},
		{"op":"_Plus","name":"2$341","attrs":{},"inputs":[[872,0,0],[873,0,0]]},
		{"op":"FullyConnected","name":"2$342","attrs":{"num_hidden":"512","no_bias":"true"},"inputs":[[874,0,0],[525,0,0]]},
		{"op":"_Plus","name":"2$343","attrs":{},"inputs":[[551,0,0],[875,0,0]]},
		{"op":"sigmoid","name":"2$344","attrs":{},"inputs":[[876,0,0]]},
		{"op":"FullyConnected","name":"2$345","attrs":{"num_hidden":"512","no_bias":"true"},"inputs":[[874,0,0],[528,0,0]]},
		{"op":"_Plus","name":"2$346","attrs":{},"inputs":[[581,0,0],[878,0,0]]},
		{"op":"sigmoid","name":"2$347","attrs":{},"inputs":[[879,0,0]]},
		{"op":"FullyConnected","name":"2$348","attrs":{"num_hidden":"512","no_bias":"true"},"inputs":[[874,0,0],[531,0,0]]},
		{"op":"_Mul","name":"2$349","attrs":{},"inputs":[[880,0,0],[881,0,0]]},
		{"op":"_Plus","name":"2$350","attrs":{},"inputs":[[611,0,0],[882,0,0]]},
		{"op":"tanh","name":"2$351","attrs":{},"inputs":[[883,0,0]]},
		{"op":"_RMinusScalar","name":"2$352","attrs":{"scalar":"1.0"},"inputs":[[877,0,0]]},
		{"op":"_Mul","name":"2$353","attrs":{},"inputs":[[884,0,0],[885,0,0]]},
		{"op":"_Mul","name":"2$354","attrs":{},"inputs":[[874,0,0],[877,0,0]]},
		{"op":"_Plus","name":"2$355","attrs":{},"inputs":[[886,0,0],[887,0,0]]},
		{"op":"FullyConnected","name":"2$356","attrs":{"num_hidden":"512","no_bias":"true"},"inputs":[[888,0,0],[525,0,0]]},
		{"op":"_Plus","name":"2$357","attrs":{},"inputs":[[552,0,0],[889,0,0]]},
		{"op":"sigmoid","name":"2$358","attrs":{},"inputs":[[890,0,0]]},
		{"op":"FullyConnected","name":"2$359","attrs":{"num_hidden":"512","no_bias":"true"},"inputs":[[888,0,0],[528,0,0]]},
		{"op":"_Plus","name":"2$360","attrs":{},"inputs":[[582,0,0],[892,0,0]]},
		{"op":"sigmoid","name":"2$361","attrs":{},"inputs":[[893,0,0]]},
		{"op":"FullyConnected","name":"2$362","attrs":{"num_hidden":"512","no_bias":"true"},"inputs":[[888,0,0],[531,0,0]]},
		{"op":"_Mul","name":"2$363","attrs":{},"inputs":[[894,0,0],[895,0,0]]},
		{"op":"_Plus","name":"2$364","attrs":{},"inputs":[[612,0,0],[896,0,0]]},
		{"op":"tanh","name":"2$365","attrs":{},"inputs":[[897,0,0]]},
		{"op":"_RMinusScalar","name":"2$366","attrs":{"scalar":"1.0"},"inputs":[[891,0,0]]},
		{"op":"_Mul","name":"2$367","attrs":{},"inputs":[[898,0,0],[899,0,0]]},
		{"op":"_Mul","name":"2$368","attrs":{},"inputs":[[888,0,0],[891,0,0]]},
		{"op":"_Plus","name":"2$369","attrs":{},"inputs":[[900,0,0],[901,0,0]]},
		{"op":"FullyConnected","name":"2$370","attrs":{"num_hidden":"512","no_bias":"true"},"inputs":[[902,0,0],[525,0,0]]},
		{"op":"_Plus","name":"2$371","attrs":{},"inputs":[[553,0,0],[903,0,0]]},
		{"op":"sigmoid","name":"2$372","attrs":{},"inputs":[[904,0,0]]},
		{"op":"FullyConnected","name":"2$373","attrs":{"num_hidden":"512","no_bias":"true"},"inputs":[[902,0,0],[528,0,0]]},
		{"op":"_Plus","name":"2$374","attrs":{},"inputs":[[583,0,0],[906,0,0]]},
		{"op":"sigmoid","name":"2$375","attrs":{},"inputs":[[907,0,0]]},
		{"op":"FullyConnected","name":"2$376","attrs":{"num_hidden":"512","no_bias":"true"},"inputs":[[902,0,0],[531,0,0]]},
		{"op":"_Mul","name":"2$377","attrs":{},"inputs":[[908,0,0],[909,0,0]]},
		{"op":"_Plus","name":"2$378","attrs":{},"inputs":[[613,0,0],[910,0,0]]},
		{"op":"tanh","name":"2$379","attrs":{},"inputs":[[911,0,0]]},
		{"op":"_RMinusScalar","name":"2$380","attrs":{"scalar":"1.0"},"inputs":[[905,0,0]]},
		{"op":"_Mul","name":"2$381","attrs":{},"inputs":[[912,0,0],[913,0,0]]},
		{"op":"_Mul","name":"2$382","attrs":{},"inputs":[[902,0,0],[905,0,0]]},
		{"op":"_Plus","name":"2$383","attrs":{},"inputs":[[914,0,0],[915,0,0]]},
		{"op":"FullyConnected","name":"2$384","attrs":{"num_hidden":"512","no_bias":"true"},"inputs":[[916,0,0],[525,0,0]]},
		{"op":"_Plus","name":"2$385","attrs":{},"inputs":[[554,0,0],[917,0,0]]},
		{"op":"sigmoid","name":"2$386","attrs":{},"inputs":[[918,0,0]]},
		{"op":"FullyConnected","name":"2$387","attrs":{"num_hidden":"512","no_bias":"true"},"inputs":[[916,0,0],[528,0,0]]},
		{"op":"_Plus","name":"2$388","attrs":{},"inputs":[[584,0,0],[920,0,0]]},
		{"op":"sigmoid","name":"2$389","attrs":{},"inputs":[[921,0,0]]},
		{"op":"FullyConnected","name":"2$390","attrs":{"num_hidden":"512","no_bias":"true"},"inputs":[[916,0,0],[531,0,0]]},
		{"op":"_Mul","name":"2$391","attrs":{},"inputs":[[922,0,0],[923,0,0]]},
		{"op":"_Plus","name":"2$392","attrs":{},"inputs":[[614,0,0],[924,0,0]]},
		{"op":"tanh","name":"2$393","attrs":{},"inputs":[[925,0,0]]},
		{"op":"_RMinusScalar","name":"2$394","attrs":{"scalar":"1.0"},"inputs":[[919,0,0]]},
		{"op":"_Mul","name":"2$395","attrs":{},"inputs":[[926,0,0],[927,0,0]]},
		{"op":"_Mul","name":"2$396","attrs":{},"inputs":[[916,0,0],[919,0,0]]},
		{"op":"_Plus","name":"2$397","attrs":{},"inputs":[[928,0,0],[929,0,0]]},
		{"op":"FullyConnected","name":"2$398","attrs":{"num_hidden":"512","no_bias":"true"},"inputs":[[930,0,0],[525,0,0]]},
		{"op":"_Plus","name":"2$399","attrs":{},"inputs":[[555,0,0],[931,0,0]]},
		{"op":"sigmoid","name":"2$400","attrs":{},"inputs":[[932,0,0]]},
		{"op":"FullyConnected","name":"2$401","attrs":{"num_hidden":"512","no_bias":"true"},"inputs":[[930,0,0],[528,0,0]]},
		{"op":"_Plus","name":"2$402","attrs":{},"inputs":[[585,0,0],[934,0,0]]},
		{"op":"sigmoid","name":"2$403","attrs":{},"inputs":[[935,0,0]]},
		{"op":"FullyConnected","name":"2$404","attrs":{"num_hidden":"512","no_bias":"true"},"inputs":[[930,0,0],[531,0,0]]},
		{"op":"_Mul","name":"2$405","attrs":{},"inputs":[[936,0,0],[937,0,0]]},
		{"op":"_Plus","name":"2$406","attrs":{},"inputs":[[615,0,0],[938,0,0]]},
		{"op":"tanh","name":"2$407","attrs":{},"inputs":[[939,0,0]]},
		{"op":"_RMinusScalar","name":"2$408","attrs":{"scalar":"1.0"},"inputs":[[933,0,0]]},
		{"op":"_Mul","name":"2$409","attrs":{},"inputs":[[940,0,0],[941,0,0]]},
		{"op":"_Mul","name":"2$410","attrs":{},"inputs":[[930,0,0],[933,0,0]]},
		{"op":"_Plus","name":"2$411","attrs":{},"inputs":[[942,0,0],[943,0,0]]},
		{"op":"FullyConnected","name":"2$412","attrs":{"num_hidden":"512","no_bias":"true"},"inputs":[[944,0,0],[525,0,0]]},
		{"op":"_Plus","name":"2$413","attrs":{},"inputs":[[556,0,0],[945,0,0]]},
		{"op":"sigmoid","name":"2$414","attrs":{},"inputs":[[946,0,0]]},
		{"op":"FullyConnected","name":"2$415","attrs":{"num_hidden":"512","no_bias":"true"},"inputs":[[944,0,0],[528,0,0]]},
		{"op":"_Plus","name":"2$416","attrs":{},"inputs":[[586,0,0],[948,0,0]]},
		{"op":"sigmoid","name":"2$417","attrs":{},"inputs":[[949,0,0]]},
		{"op":"FullyConnected","name":"2$418","attrs":{"num_hidden":"512","no_bias":"true"},"inputs":[[944,0,0],[531,0,0]]},
		{"op":"_Mul","name":"2$419","attrs":{},"inputs":[[950,0,0],[951,0,0]]},
		{"op":"_Plus","name":"2$420","attrs":{},"inputs":[[616,0,0],[952,0,0]]},
		{"op":"tanh","name":"2$421","attrs":{},"inputs":[[953,0,0]]},
		{"op":"_RMinusScalar","name":"2$422","attrs":{"scalar":"1.0"},"inputs":[[947,0,0]]},
		{"op":"_Mul","name":"2$423","attrs":{},"inputs":[[954,0,0],[955,0,0]]},
		{"op":"_Mul","name":"2$424","attrs":{},"inputs":[[944,0,0],[947,0,0]]},
		{"op":"_Plus","name":"2$425","attrs":{},"inputs":[[956,0,0],[957,0,0]]},
		{"op":"FullyConnected","name":"2$426","attrs":{"num_hidden":"512","no_bias":"true"},"inputs":[[958,0,0],[525,0,0]]},
		{"op":"_Plus","name":"2$427","attrs":{},"inputs":[[557,0,0],[959,0,0]]},
		{"op":"sigmoid","name":"2$428","attrs":{},"inputs":[[960,0,0]]},
		{"op":"FullyConnected","name":"2$429","attrs":{"num_hidden":"512","no_bias":"true"},"inputs":[[958,0,0],[528,0,0]]},
		{"op":"_Plus","name":"2$430","attrs":{},"inputs":[[587,0,0],[962,0,0]]},
		{"op":"sigmoid","name":"2$431","attrs":{},"inputs":[[963,0,0]]},
		{"op":"FullyConnected","name":"2$432","attrs":{"num_hidden":"512","no_bias":"true"},"inputs":[[958,0,0],[531,0,0]]},
		{"op":"_Mul","name":"2$433","attrs":{},"inputs":[[964,0,0],[965,0,0]]},
		{"op":"_Plus","name":"2$434","attrs":{},"inputs":[[617,0,0],[966,0,0]]},
		{"op":"tanh","name":"2$435","attrs":{},"inputs":[[967,0,0]]},
		{"op":"_RMinusScalar","name":"2$436","attrs":{"scalar":"1.0"},"inputs":[[961,0,0]]},
		{"op":"_Mul","name":"2$437","attrs":{},"inputs":[[968,0,0],[969,0,0]]},
		{"op":"_Mul","name":"2$438","attrs":{},"inputs":[[958,0,0],[961,0,0]]},
		{"op":"_Plus","name":"2$439","attrs":{},"inputs":[[970,0,0],[971,0,0]]},
		{"op":"FullyConnected","name":"2$440","attrs":{"num_hidden":"512","no_bias":"true"},"inputs":[[972,0,0],[525,0,0]]},
		{"op":"_Plus","name":"2$441","attrs":{},"inputs":[[558,0,0],[973,0,0]]},
		{"op":"sigmoid","name":"2$442","attrs":{},"inputs":[[974,0,0]]},
		{"op":"FullyConnected","name":"2$443","attrs":{"num_hidden":"512","no_bias":"true"},"inputs":[[972,0,0],[528,0,0]]},
		{"op":"_Plus","name":"2$444","attrs":{},"inputs":[[588,0,0],[976,0,0]]},
		{"op":"sigmoid","name":"2$445","attrs":{},"inputs":[[977,0,0]]},
		{"op":"FullyConnected","name":"2$446","attrs":{"num_hidden":"512","no_bias":"true"},"inputs":[[972,0,0],[531,0,0]]},
		{"op":"_Mul","name":"2$447","attrs":{},"inputs":[[978,0,0],[979,0,0]]},
		{"op":"_Plus","name":"2$448","attrs":{},"inputs":[[618,0,0],[980,0,0]]},
		{"op":"tanh","name":"2$449","attrs":{},"inputs":[[981,0,0]]},
		{"op":"_RMinusScalar","name":"2$450","attrs":{"scalar":"1.0"},"inputs":[[975,0,0]]},
		{"op":"_Mul","name":"2$451","attrs":{},"inputs":[[982,0,0],[983,0,0]]},
		{"op":"_Mul","name":"2$452","attrs":{},"inputs":[[972,0,0],[975,0,0]]},
		{"op":"_Plus","name":"2$453","attrs":{},"inputs":[[984,0,0],[985,0,0]]},
		{"op":"FullyConnected","name":"2$454","attrs":{"num_hidden":"512","no_bias":"true"},"inputs":[[986,0,0],[525,0,0]]},
		{"op":"_Plus","name":"2$455","attrs":{},"inputs":[[559,0,0],[987,0,0]]},
		{"op":"sigmoid","name":"2$456","attrs":{},"inputs":[[988,0,0]]},
		{"op":"FullyConnected","name":"2$457","attrs":{"num_hidden":"512","no_bias":"true"},"inputs":[[986,0,0],[528,0,0]]},
		{"op":"_Plus","name":"2$458","attrs":{},"inputs":[[589,0,0],[990,0,0]]},
		{"op":"sigmoid","name":"2$459","attrs":{},"inputs":[[991,0,0]]},
		{"op":"FullyConnected","name":"2$460","attrs":{"num_hidden":"512","no_bias":"true"},"inputs":[[986,0,0],[531,0,0]]},
		{"op":"_Mul","name":"2$461","attrs":{},"inputs":[[992,0,0],[993,0,0]]},
		{"op":"_Plus","name":"2$462","attrs":{},"inputs":[[619,0,0],[994,0,0]]},
		{"op":"tanh","name":"2$463","attrs":{},"inputs":[[995,0,0]]},
		{"op":"_RMinusScalar","name":"2$464","attrs":{"scalar":"1.0"},"inputs":[[989,0,0]]},
		{"op":"_Mul","name":"2$465","attrs":{},"inputs":[[996,0,0],[997,0,0]]},
		{"op":"_Mul","name":"2$466","attrs":{},"inputs":[[986,0,0],[989,0,0]]},
		{"op":"_Plus","name":"2$467","attrs":{},"inputs":[[998,0,0],[999,0,0]]},
		{"op":"FullyConnected","name":"2$468","attrs":{"num_hidden":"512","no_bias":"true"},"inputs":[[1000,0,0],[525,0,0]]},
		{"op":"_Plus","name":"2$469","attrs":{},"inputs":[[560,0,0],[1001,0,0]]},
		{"op":"sigmoid","name":"2$470","attrs":{},"inputs":[[1002,0,0]]},
		{"op":"FullyConnected","name":"2$471","attrs":{"num_hidden":"512","no_bias":"true"},"inputs":[[1000,0,0],[528,0,0]]},
		{"op":"_Plus","name":"2$472","attrs":{},"inputs":[[590,0,0],[1004,0,0]]},
		{"op":"sigmoid","name":"2$473","attrs":{},"inputs":[[1005,0,0]]},
		{"op":"FullyConnected","name":"2$474","attrs":{"num_hidden":"512","no_bias":"true"},"inputs":[[1000,0,0],[531,0,0]]},
		{"op":"_Mul","name":"2$475","attrs":{},"inputs":[[1006,0,0],[1007,0,0]]},
		{"op":"_Plus","name":"2$476","attrs":{},"inputs":[[620,0,0],[1008,0,0]]},
		{"op":"tanh","name":"2$477","attrs":{},"inputs":[[1009,0,0]]},
		{"op":"_RMinusScalar","name":"2$478","attrs":{"scalar":"1.0"},"inputs":[[1003,0,0]]},
		{"op":"_Mul","name":"2$479","attrs":{},"inputs":[[1010,0,0],[1011,0,0]]},
		{"op":"_Mul","name":"2$480","attrs":{},"inputs":[[1000,0,0],[1003,0,0]]},
		{"op":"_Plus","name":"2$481","attrs":{},"inputs":[[1012,0,0],[1013,0,0]]},
		{"op":"FullyConnected","name":"2$482","attrs":{"num_hidden":"512","no_bias":"true"},"inputs":[[1014,0,0],[525,0,0]]},
		{"op":"_Plus","name":"2$483","attrs":{},"inputs":[[561,0,0],[1015,0,0]]},
		{"op":"sigmoid","name":"2$484","attrs":{},"inputs":[[1016,0,0]]},
		{"op":"FullyConnected","name":"2$485","attrs":{"num_hidden":"512","no_bias":"true"},"inputs":[[1014,0,0],[528,0,0]]},
		{"op":"_Plus","name":"2$486","attrs":{},"inputs":[[591,0,0],[1018,0,0]]},
		{"op":"sigmoid","name":"2$487","attrs":{},"inputs":[[1019,0,0]]},
		{"op":"FullyConnected","name":"2$488","attrs":{"num_hidden":"512","no_bias":"true"},"inputs":[[1014,0,0],[531,0,0]]},
		{"op":"_Mul","name":"2$489","attrs":{},"inputs":[[1020,0,0],[1021,0,0]]},
		{"op":"_Plus","name":"2$490","attrs":{},"inputs":[[621,0,0],[1022,0,0]]},
		{"op":"tanh","name":"2$491","attrs":{},"inputs":[[1023,0,0]]},
		{"op":"_RMinusScalar","name":"2$492","attrs":{"scalar":"1.0"},"inputs":[[1017,0,0]]},
		{"op":"_Mul","name":"2$493","attrs":{},"inputs":[[1024,0,0],[1025,0,0]]},
		{"op":"_Mul","name":"2$494","attrs":{},"inputs":[[1014,0,0],[1017,0,0]]},
		{"op":"_Plus","name":"2$495","attrs":{},"inputs":[[1026,0,0],[1027,0,0]]},
		{"op":"FullyConnected","name":"2$496","attrs":{"num_hidden":"512","no_bias":"true"},"inputs":[[1028,0,0],[525,0,0]]},
		{"op":"_Plus","name":"2$497","attrs":{},"inputs":[[562,0,0],[1029,0,0]]},
		{"op":"sigmoid","name":"2$498","attrs":{},"inputs":[[1030,0,0]]},
		{"op":"FullyConnected","name":"2$499","attrs":{"num_hidden":"512","no_bias":"true"},"inputs":[[1028,0,0],[528,0,0]]},
		{"op":"_Plus","name":"2$500","attrs":{},"inputs":[[592,0,0],[1032,0,0]]},
		{"op":"sigmoid","name":"2$501","attrs":{},"inputs":[[1033,0,0]]},
		{"op":"FullyConnected","name":"2$502","attrs":{"num_hidden":"512","no_bias":"true"},"inputs":[[1028,0,0],[531,0,0]]},
		{"op":"_Mul","name":"2$503","attrs":{},"inputs":[[1034,0,0],[1035,0,0]]},
		{"op":"_Plus","name":"2$504","attrs":{},"inputs":[[622,0,0],[1036,0,0]]},
		{"op":"tanh","name":"2$505","attrs":{},"inputs":[[1037,0,0]]},
		{"op":"_RMinusScalar","name":"2$506","attrs":{"scalar":"1.0"},"inputs":[[1031,0,0]]},
		{"op":"_Mul","name":"2$507","attrs":{},"inputs":[[1038,0,0],[1039,0,0]]},
		{"op":"_Mul","name":"2$508","attrs":{},"inputs":[[1028,0,0],[1031,0,0]]},
		{"op":"_Plus","name":"2$509","attrs":{},"inputs":[[1040,0,0],[1041,0,0]]},
		{"op":"BlockGrad","name":"2.State","attrs":{},"inputs":[[1042,0,0]]},
		{"op":"Concat","name":"3$0","attrs":{"num_args":"30","dim":"0"},"inputs":[[636,0,0],[650,0,0],[664,0,0],[678,0,0],[692,0,0],[706,0,0],[720,0,0],[734,0,0],[748,0,0],[762,0,0],[776,0,0],[790,0,0],[804,0,0],[818,0,0],[832,0,0],[846,0,0],[860,0,0],[874,0,0],[888,0,0],[902,0,0],[916,0,0],[930,0,0],[944,0,0],[958,0,0],[972,0,0],[986,0,0],[1000,0,0],[1014,0,0],[1028,0,0],[1042,0,0]]},
		{"op":"Reshape","name":"3$1","attrs":{"shape":"(30, -1, 512)"},"inputs":[[1044,0,0]]},
		{"op":"Reshape","name":"3$2","attrs":{"shape":"(-3, -2)"},"inputs":[[1045,0,0]]},
		{"op":"null","name":"3.Net.1.Weights","attrs":{},"inputs":[]},
		{"op":"null","name":"3.Net.1.Biases","attrs":{},"inputs":[]},
		{"op":"FullyConnected","name":"3.Net.1$0","attrs":{"num_hidden":"16384"},"inputs":[[1046,0,0],[1047,0,0],[1048,0,0]]},
		{"op":"Reshape","name":"3.Net.1$1","attrs":{"shape":"(-1, 128, 128)"},"inputs":[[1049,0,0]]},
		{"op":"relu","name":"3.Net.2$0","attrs":{},"inputs":[[1050,0,0]]},
		{"op":"split_like","name":"3$3","attrs":{},"inputs":[[1051,0,0],[1045,0,0]]},
		{"op":"SwapAxis","name":"","attrs":{"dim1":"0","dim2":"1"},"inputs":[[1052,0,0]]},
		{"op":"identity","name":"Output","attrs":{},"inputs":[[1053,0,0]]}
	],
	"arg_nodes":[0,1,2,3,4,5,6,7,8,9,10,11,524,525,526,527,528,529,530,531,532,1047,1048],
	"heads":[
		[1054,0,0],
		[523,0,0],
		[1043,0,0]
	],
	"attrs":{
		"mxnet_version":["int",10001]
	}
}